StockEnv_PPO_0/act.pth (torch, 67080 bytes, 9 tensors)

action_std_log f4 [1, 7]
5.984128e-05 5.9493876e-05 5.9421087e-05 5.9487735e-05 6.022131e-05 5.9452454e-05 6.00797e-05
00000000: 16fe 7a38 1089 7938 e83a 7938 7882 7938
00000010: 2496 7c38 965c 7938 16fe 7b38

state_avg f4 [52]
0.0 0.0 0.0 0.0 0.0 0.0 0.0 0.0
0.0 0.0 0.0 0.0 0.0 0.0 0.0 0.0
0.0 0.0 0.0 0.0 0.0 0.0 0.0 0.0
0.0 0.0 0.0 0.0 0.0 0.0 0.0 0.0
0.0 0.0 0.0 0.0 0.0 0.0 0.0 0.0
0.0 0.0 0.0 0.0 0.0 0.0 0.0 0.0
0.0 0.0 0.0 0.0
00000000: 0000 0000 0000 0000 0000 0000 0000 0000
00000010: 0000 0000 0000 0000 0000 0000 0000 0000
00000020: 0000 0000 0000 0000 0000 0000 0000 0000
00000030: 0000 0000 0000 0000 0000 0000 0000 0000
00000040: 0000 0000 0000 0000 0000 0000 0000 0000
00000050: 0000 0000 0000 0000 0000 0000 0000 0000
00000060: 0000 0000 0000 0000 0000 0000 0000 0000
00000070: 0000 0000 0000 0000 0000 0000 0000 0000
00000080: 0000 0000 0000 0000 0000 0000 0000 0000
00000090: 0000 0000 0000 0000 0000 0000 0000 0000
000000a0: 0000 0000 0000 0000 0000 0000 0000 0000
000000b0: 0000 0000 0000 0000 0000 0000 0000 0000
000000c0: 0000 0000 0000 0000 0000 0000 0000 0000

state_std f4 [52]
1.0 1.0 1.0 1.0 1.0 1.0 1.0 1.0
1.0 1.0 1.0 1.0 1.0 1.0 1.0 1.0
1.0 1.0 1.0 1.0 1.0 1.0 1.0 1.0
1.0 1.0 1.0 1.0 1.0 1.0 1.0 1.0
1.0 1.0 1.0 1.0 1.0 1.0 1.0 1.0
1.0 1.0 1.0 1.0 1.0 1.0 1.0 1.0
1.0 1.0 1.0 1.0
00000000: 0000 803f 0000 803f 0000 803f 0000 803f
00000010: 0000 803f 0000 803f 0000 803f 0000 803f
00000020: 0000 803f 0000 803f 0000 803f 0000 803f
00000030: 0000 803f 0000 803f 0000 803f 0000 803f
00000040: 0000 803f 0000 803f 0000 803f 0000 803f
00000050: 0000 803f 0000 803f 0000 803f 0000 803f
00000060: 0000 803f 0000 803f 0000 803f 0000 803f
00000070: 0000 803f 0000 803f 0000 803f 0000 803f
00000080: 0000 803f 0000 803f 0000 803f 0000 803f
00000090: 0000 803f 0000 803f 0000 803f 0000 803f
000000a0: 0000 803f 0000 803f 0000 803f 0000 803f
000000b0: 0000 803f 0000 803f 0000 803f 0000 803f
000000c0: 0000 803f 0000 803f 0000 803f 0000 803f

weight f4 [128, 52]
-0.05546007 -0.08387484 -0.037913006 -0.064834684 0.10171936 -0.0107755 0.012292599 0.08082366
0.08773699 0.048427112 -0.041705333 -0.042211656 0.008360402 -0.10859218 0.03224624 -0.10508139
0.055469885 -0.09596952 -0.019216377 -0.022377204 0.04078194 -0.08967833 0.13492018 -0.103868335
-0.13861796 0.10134335 -0.08356003 0.12493009 0.09221596 -0.06738644 -0.122162856 -0.1300156
-0.019510949 0.07965643 0.109941885 -0.078669555 -0.1180849 -0.05779429 0.13290305 -0.115567505
-0.099472776 0.07622951 -0.047630105 -0.077036224 -0.13642524 -0.04611016 0.024101937 -0.0163324
0.0486814 -0.0719508 0.019702943 -0.059598424 -0.0926527 -0.02566253 0.057915516 -0.12705332
0.06291473 0.023278296 -0.012132906 -0.068769984 0.030989446 0.083987035 0.059374258 0.03012016
-0.014084052 -0.034377843 -0.008949199 -0.10416328 3.0963227e-05 0.0065524005 -0.011789765 0.12315007
0.08713136 0.03945295 -0.053711575 0.09104873 0.08439012 -0.008155611 -0.0137673775 0.08004302
0.021723159 0.13059819 0.123172194 0.08062935 -0.061811708 0.04867877 0.03540606 0.04948279
0.13718118 -0.12108345 -0.027647946 -0.10202637 -0.0074199494 0.079573095 -0.07723824 0.12166597
-0.088422395 0.13248298 0.11266027 -0.029668275 -0.029923586 -0.028570395 -0.07909881 -0.01369254
-0.09783305 -0.085011184 -0.04427779 0.08363594 -0.13168676 0.092677 -0.053595494 -0.015427425
0.06966242 -0.08731867 -0.118884176 0.014050572 0.09391044 0.03254884 -0.08077096 0.11399928
0.1281208 -0.012350348 -0.13456337 0.13562389 0.122684725 0.07406257 0.11922314 -0.09358118
-0.12913834 -0.061263744 -0.07585792 0.067382544 -0.11795154 0.08771109 -0.12498223 -0.057790384
-0.022169726 -0.106699444 0.13383208 -0.119081765 -0.05123361 -0.043314427 -0.0021616232 -0.008575144
0.12844151 -0.019135026 0.025677837 0.12910967 -0.0565005 -0.093741536 0.0273869 0.007013295
0.006234519 0.03033257 -0.005422119 -0.058506247 -0.071209654 0.12897654 -0.011556805 0.12028127
0.097772636 -0.037444703 -0.13653779 -0.06497187 0.04261063 -0.028632846 0.10948182 -0.12218084
-0.13357313 -0.10817111 0.09031893 -0.080976 0.032072145 0.06239519 -0.039741192 -0.13211402
0.06523976 -0.016977375 -0.054954566 -0.09374428 -0.12609327 0.08011764 -0.09936984 -0.041890297
0.06521273 0.07906479 -0.13523497 -0.11236714 0.10440695 -0.034394056 0.07130292 -0.055843927
0.113083325 -0.08452443 0.10151288 0.040876318 -0.12244749 -0.077825844 0.035028238 0.11292618
-0.084889464 -0.032155946 0.121185504 -0.005631505 0.09779496 0.07738447 -0.017968077 0.015212797
0.009062125 0.12990136 -0.09916847 -0.058104437 0.037633974 -0.10605315 -0.07196786 -0.09736016
-0.009304623 0.09189401 0.04708771 0.06293452 -0.07675346 0.05050345 0.049267005 -0.10340792
0.11691972 0.060834177 0.0988159 0.061558645 0.124577306 0.06262457 -0.02714903 0.063792646
-0.10002777 -0.096176624 -0.051033646 0.0008803442 0.12290419 0.11573408 -0.031907234 -0.003700957
0.08927391 -0.03739743 0.06820949 -0.004813765 -0.005416614 0.10416851 -0.13176 0.13444817
0.0960985 -0.089153275 -0.036323123 0.029062055 0.021811536 -0.10616872 0.0075851306 -0.024099557
00000000: 192a 63bd 92c6 abbd ab4a 1bbd 0cc8 84bd
00000010: 3d52 d03d b98b 30bc e666 493c e086 a53d
00000020: 73af b33d 825b 463d 36d3 2abd 21e6 2cbd
00000030: 11fa 083c 9465 debd a214 043d e934 d7bd
00000040: 6434 633d ab8b c4bd aa6b 9dbc 6650 b7bc
00000050: f70a 273d 46a9 b7bd 8428 0a3e ecb8 d4bd
00000060: def1 0dbe 1a8d cf3d 8521 abbd 59db ff3d
00000070: b9db bc3d e701 8abd 8530 fabd cf22 05be
00000080: 6dd5 9fbc e922 a33d 3629 e13d 811d a1bd
00000090: 7fd6 f1bd b5b9 6cbd bd17 083e a8ae ecbd
000000a0: 62b8 cbbd 381e 9c3d c917 43bd 2bc5 9dbd
000000b0: 0fb3 0bbe 02de 3cbd 6d71 c53c 86cb 85bc
000000c0: 2666 473d f15a 93bd 1168 a13c 7a1d 74bd
000000d0: b3c0 bdbd 3a3a d2bc d238 6d3d 441a 02be
000000e0: 70d9 803d 20b2 be3c 19c9 46bc 47d7 8cbd
000000f0: 94dd fd3c 6501 ac3d 6c32 733d 8ebe f63c
00000100: ccc0 66bc c8cf 0cbd a99f 12bc 8f53 d5bd
00000110: 83de 0138 85b5 d63b dc29 41bc 1b36 fc3d
00000120: ed71 b23d 6b99 213d ab00 5cbd c277 ba3d
00000130: bad4 ac3d 1d9f 05bc 9190 61bc 98ed a33d
00000140: c4f4 b13c 88bb 053e b441 fc3d 0021 a53d
00000150: 462e 7dbd 6463 473d f205 113d 77ae 4a3d
00000160: 3979 0c3e 9afa f7bd f27d e2bc 34f3 d0bd
00000170: 0c23 f3bb 38f7 a23d 152f 9ebd 022c f93d
00000180: cd16 b5bd 9ea9 073e 6dba e63d e20a f3bc
00000190: 4f22 f5bc 760c eabc 8ffe a1bd ad56 60bc
000001a0: b25c c8bd 581a aebd a15c 35bd 5249 ab3d
000001b0: e5d8 06be 70cd bd3d f386 5bbd 4fc3 7cbc
000001c0: 2cab 8e3d 21d4 b2bd 8c79 f3bd 5f34 663c
000001d0: 1e54 c03d ef51 053d 3f6b a5bd 7478 e93d
000001e0: 1932 033e 1d59 4abc fbca 09be fde0 0a3e
000001f0: 2142 fb3d 1eae 973d 432b f43d 7da7 bfbd
00000200: d73c 04be b1ef 7abd 665b 9bbd dcff 893d
00000210: 9490 f1bd dfa1 b33d aff6 ffbd 9cb5 6cbd
00000220: 499d b5bc 3d85 dabd 470b 093e 24e1 f3bd
00000230: 55da 51bd 786a 31bd 05aa 0dbb c37e 0cbc
00000240: 2c86 033e 0fc1 9cbc 545a d23c 5335 043e
00000250: 116d 67bd 90fb bfbd 7e5a e03c c8cf e53b
00000260: f04a cc3b 037c f83c 08ac b1bb 3fa4 6fbd
00000270: 5ed6 91bd 6d12 043e c158 3dbc 0756 f63d
00000280: 053d c83d 9e5f 19bd 90d0 0bbe f90f 85bd
00000290: 7c88 2e3d 6e8f eabc 0138 e03d f339 fabd
000002a0: 65c7 08be d188 ddbd 22f9 b83d bfd6 a5bd
000002b0: 155e 033d 1992 7f3d a9c7 22bd e648 07be
000002c0: 6c9c 853d 2314 8bbc 0a18 61bd 00fd bfbd
000002d0: 981e 01be b814 a43d 6a82 cbbd 2995 2bbd
000002e0: 408e 853d b8ec a13d 097b 0abe be20 e6bd
000002f0: 50d3 d53d c8e0 0cbd 4407 923d 9abc 64bd
00000300: 3b98 e73d 251b adbd fce5 cf3d ed6d 273d
00000310: c0c5 fabd 2863 9fbd c579 0f3d d745 e73d
00000320: 87da adbd f4b5 03bd 1b30 f83d 7d88 b8bb
00000330: b948 c83d c07b 9e3d ca31 93bc 183f 793c
00000340: 4f79 143c dd04 053e d718 cbbd ebfe 6dbd
00000350: 1526 1a3d 6532 d9bd e363 93bd c364 c7bd
00000360: 6b72 18bc ed32 bc3d 0bdf 403d d0e3 803d
00000370: eb30 9dbd b5dc 4e3d 33cc 493d 88c7 d3bd
00000380: 9b73 ef3d 422d 793d fe5f ca3d eb24 7c3d
00000390: 6322 ff3d 5041 803d a467 debc b8a5 823d
000003a0: 5cdb ccbd 40f8 c4bd a808 51bd e6c6 663a
000003b0: 31b5 fb3d fd05 ed3d 29b1 02bd c18b 72bb
000003c0: 3dd5 b63d 0c2e 19bd 6bb1 8b3d cabc 9dbb
000003d0: da7d b1bb 4d56 d53d 18ec 06be c8ac 093e
000003e0: 4acf c43d fe95 b6bd 8ec7 14bd 8c13 ee3c
000003f0: 1bae b23c fc6e d9bd b08c f83b 6f6c c5bc

bias f4 [128]
-0.11487626 -0.06667039 0.045171056 0.11515417 0.07263042 0.047750045 0.019973546 -0.12671033
-0.052089468 0.10078226 0.016243195 0.0033484625 -0.08495932 0.04158371 -0.033658978 0.048083816
0.04091598 -0.087613575 -0.04877859 0.1277887 0.06951492 -0.06148781 0.05930764 -0.0451802
-0.029356377 -0.110229045 -0.019278664 -0.03956419 0.09131845 -0.008618998 -0.12407673 0.025764823
0.071644396 -0.07023147 -0.044502556 -0.09189799 -0.09689764 -0.112652086 0.105072185 0.025241084
-0.0062859175 0.083271146 0.01553736 0.047597334 -0.12470949 0.093742415 -0.12181211 0.11616545
-0.03315114 0.073279046 0.040848576 0.031165956 -0.031576913 -0.016885307 0.11908414 -0.119686775
-0.026146352 0.02447584 -0.0738938 0.06724766 -0.041373145 -0.019525383 0.089394785 0.09857524
0.10496881 -0.015115054 0.021233965 -0.10419888 -0.123288244 -0.1062949 -0.13152581 0.05210784
-0.027085863 -0.12951133 0.021469263 -0.12229325 0.011540262 0.019555029 0.043970868 0.019223647
-0.078463554 -0.052533466 -0.13562994 7.042366e-05 -0.008367436 -0.12111361 0.05007563 0.107180856
0.12957075 0.13656151 -0.008079444 -0.09590025 -0.093534134 0.03560984 -0.06107098 0.011874889
-0.13097009 0.027056266 -0.01693622 -0.090953894 -0.017584337 -0.0392282 0.020458996 -0.13673532
-0.0009495328 0.11284359 -0.048849706 -0.05818411 -0.021460049 -0.0055866744 -0.10454711 -0.11245696
0.10710381 -0.13337135 -0.04555748 -0.04322422 0.028493866 0.07133687 -0.07663255 0.018212605
-0.08347555 -0.06742077 -0.038082514 -0.06594981 0.022220984 0.078794904 -0.038139243 0.093285285
00000000: 3f44 ebbd 7c8a 88bd 4905 393d f3d5 eb3d
00000010: 42bf 943d 8d95 433d 909f a33c 5ac0 01be
00000020: c45b 55bd ee66 ce3d 7310 853c e171 5b3b
00000030: 27ff adbd ae53 2a3d ffdd 09bd 89f3 443d
00000040: 8497 273d bf6e b3bd 0fcc 47bd 0adb 023e
00000050: d75d 8e3d a4da 7bbd 91ec 723d e00e 39bd
00000060: c97c f0bc c4bf e1bd 4aee 9dbc 0f0e 22bd
00000070: 2b05 bb3d b336 0dbc f11b febd c010 d33c
00000080: 4cba 923d 84d5 8fbd 5048 36bd 0335 bcbd
00000090: 4572 c6bd 23b6 e6bd 1630 d73d 64c6 ce3c
000000a0: 19fa cdbb 108a aa3d 6990 7e3c 6cf5 423d
000000b0: b067 ffbd 06fc bf3d a178 f9bd 27e8 ed3d
000000c0: 7dc9 07bd 5313 963d d650 273d bf4f ff3c
000000d0: cb56 01bd 0e53 8abc 63e2 f33d 571e f5bd
000000e0: e030 d6bc 8f81 c83c a255 97bd 24b9 893d
000000f0: e376 29bd b2f3 9fbc 9d14 b73d d1e1 c93d
00000100: e3f9 d63d 22a5 77bc daf2 ad3c 3966 d5bd
00000110: 8c7e fcbd 24b1 d9bd b4ae 06be 086f 553d
00000120: 2ce3 ddbc 9e9e 04be 4fe0 af3c e274 fabd
00000130: 5e13 3d3c de31 a03c cc1a 343d e97a 9d3c
00000140: 80b1 a0bd 552d 57bd 93e2 0abe 6ab0 9338
00000150: 9217 09bc 6a0a f8bd 1b1c 4d3d a381 db3d
00000160: 32ae 043e c8d6 0b3e a55f 04bc 5a67 c4bd
00000170: d38e bfbd a0db 113d 9025 7abd e58e 423c
00000180: 061d 06be 1aa5 dd3c d4bd 8abc 0946 babd
00000190: 070d 90bc c0ad 20bd a099 a73c 5804 0cbe
000001a0: 11ea 78ba 8a1a e73d a116 48bd 7652 6ebd
000001b0: fccc afbc 6c10 b7bb cc1c d6bd d64f e6bd
000001c0: 3e59 db3d 8092 08be 7b9a 3abd e10b 31bd
000001d0: f86b e93c 1119 923d 87f1 9cbd 9a32 953c
000001e0: 3bf5 aabd e713 8abd 69fc 1bbd b210 87bd
000001f0: c808 b63c 395f a13d e537 1cbd 5b0c bf3d

weight f4 [64, 128]
-0.026427679 0.06616112 0.06718394 0.058292117 -0.079831146 0.08025888 -0.00868603 -0.0548308
0.054584026 -0.08002092 0.014627325 0.00025399853 0.019755226 0.08220539 -0.05053898 -0.05058433
0.0071741263 0.021673834 -0.068029836 0.05087482 -0.019546708 -0.06251566 -0.012249194 -0.07092166
0.041942082 -0.0758095 0.02937764 -0.046833314 0.041520495 0.063991055 -0.009562155 0.048243962
0.06880484 0.08530911 0.076726295 -0.014247998 -0.07898898 0.040114496 -0.0017787527 -0.01134544
0.034160566 0.05536829 -0.07425706 -0.009304231 -0.059173822 0.0795528 -0.08678209 0.010536556
0.050100863 -0.07728561 0.03824897 0.03633267 0.016333988 0.0054349657 -0.081780635 0.038358204
0.07838482 0.030989788 -0.046062566 0.014849407 -0.028948555 -0.0815535 0.0070175356 0.084272414
-0.044861484 -0.044520557 -0.056972582 -0.026177661 0.08490007 0.03585013 0.027719112 0.07949775
0.042169135 -0.018837912 -0.07370864 0.06475554 -0.030922156 0.08135757 0.027112802 -0.036002435
0.08419637 0.04158272 0.058886543 -0.0782934 -0.039034985 0.04907342 0.021982932 0.08047802
0.042568684 0.026694475 0.0644491 0.04510791 0.036335826 0.086968765 0.033652812 0.060979106
-0.07339672 0.022690685 0.002970637 0.0034764952 -0.08211589 -0.057663206 0.040687263 0.06330608
-0.025786715 0.0650839 0.035730876 0.061391875 -0.08769821 -0.03830558 0.016395979 0.06443716
0.050455917 -0.06788011 -0.055408873 -0.046955876 -0.026647346 0.0076318975 -0.056762677 0.059566192
0.06368762 0.029200772 -0.04691295 0.009754636 0.041116815 0.0018018733 0.0049195127 -0.05355268
0.00084305037 -0.08449688 -0.046010617 -0.04077634 0.040492617 -0.082669154 0.02512874 0.08385771
-0.041066065 0.01810604 -0.043743636 0.01182272 0.02613 0.030080792 -0.042987924 0.009922295
-0.0432673 0.060731944 0.0012004043 -0.019341035 -0.02544671 0.049072016 -0.025822183 -0.0028444347
0.0068146274 -0.050908253 0.07382015 -0.078390665 0.049721792 -0.07254536 -0.00876303 -0.013374561
0.010654606 -0.04603169 -0.0709867 -0.037733115 0.06872195 -0.023288978 -0.032168493 0.07673017
0.05240788 0.08742179 -0.014826708 -0.05472089 0.060412426 -0.018281933 0.03427884 0.08127629
-0.012830952 -0.05086993 0.019765193 0.04415323 -0.08782161 0.023685275 -0.050252076 -0.06001724
0.066523194 -0.035237875 0.013760521 4.750758e-05 -0.057376232 0.031302307 0.069425076 0.009279714
-0.08315623 -0.04585969 0.041584503 0.0009866401 -0.010724918 0.028625105 -0.02174531 -0.06543276
-0.03367597 -0.076875545 -0.006176769 -0.02829642 0.048561566 -0.02513956 0.029304491 0.05556176
0.07041984 0.059262767 0.04405964 0.023091748 -0.009961853 -0.061155807 -0.07553769 -0.033347975
0.0515163 0.0779724 -0.06704235 0.06915298 0.0033481962 -0.018154658 -0.024289146 0.06609253
0.023450334 0.07269582 0.0344983 0.023404019 -0.063225485 -0.034132898 0.040164616 0.07282731
0.0635113 -0.04785483 -0.017686453 0.009910568 -0.08583976 0.025426222 -0.008184384 -0.014030329
-0.057727534 -0.03771338 -0.011934789 -0.05060899 0.010612827 0.06277783 0.062328268 -0.039158378
-0.068859175 0.04246461 0.023455212 -0.078305155 -0.042528573 -0.079509005 0.0178816 0.006777881
00000000: dc7e d8bc 7b7f 873d bc97 893d b7c3 6e3d
00000010: 837e a3bd c55e a43d da4f 0ebc 4396 60bd
00000020: 8093 5f3d 02e2 a3bd 73a7 6f3c 1b2b 8539
00000030: b6d5 a13c 4d5b a83d f601 4fbd 8431 4fbd
00000040: ef14 eb3b 538d b13c 3a53 8bbd 1e62 503d
00000050: 6b20 a0bc 3608 80bd d8b0 48bc 603f 91bd
00000060: 76cb 2b3d 0342 9bbd 60a9 f03c 4ad4 3fbd
00000070: 6511 2a3d be0d 833d 96aa 1cbc 769b 453d
00000080: 8de9 8c3d 8bb6 ae3d ad22 9d3d 6f70 69bc
00000090: f9c4 a1bd 194f 243d 0925 e9ba 39e2 39bc
000000a0: f3eb 0b3d dcc9 623d 1614 98bd c670 18bc
000000b0: 4060 72bd 94ec a23d cfba b1bd 85a1 2c3c
000000c0: 9036 4d3d eb47 9ebd f4aa 1c3d 91d1 143d
000000d0: dbce 853c cc17 b23b 9b7c a7bd 7e1d 1d3d
000000e0: 3888 a03d 4cde fd3c 1aac 3cbd ed4a 733c
000000f0: 8525 edbc 8505 a7bd 5bf3 e53b 0497 ac3d
00000100: adc0 37bd 305b 36bd 155c 69bd 8972 d6bc
00000110: 17e0 ad3d 96d7 123d 3113 e33c b7cf a23d
00000120: 8bb9 2c3d f751 9abc 8ef4 96bd 8d9e 843d
00000130: 7650 fdbc cc9e a63d ab1b de3c 4a77 13bd
00000140: 256f ac3d a452 2a3d 0433 713d 4a58 a0bd
00000150: 26e3 1fbd 3601 493d 8d15 b43c a9d1 a43d
00000160: 805c 2e3d 5fae da3c e4fd 833d 12c3 383d
00000170: e0d4 143d ae1c b23d 88d7 093d 3ac5 793d
00000180: 0551 96bd d1e1 b93c 05af 423b e9d5 633b
00000190: 602c a8bd 4130 6cbd b0a7 263d 9ea6 813d
000001a0: a93e d3bc b54a 853d 8a5a 123d 0c76 7b3d
000001b0: 1e9b b3bd 50e6 1cbd dc50 863c a1f7 833d
000001c0: ddaa 4e3d ba04 8bbd 6af4 62bd ce54 40bd
000001d0: 894b dabc ff14 fa3b fb7f 68bd aefb 733d
000001e0: a86e 823d 7536 ef3c cb27 40bd e9d1 1f3c
000001f0: 1b6a 283d d62c ec3a dd33 a13b 0e5a 5bbd
00000200: 2700 5d3a b30c adbd a175 3cbd 1705 27bd
00000210: 96db 253d 724e a9bd cada cd3c 97bd ab3d
00000220: e434 28bd 1e53 943c 872c 33bd 15b4 413c
00000230: 950e d63c fe6b f63c 1b14 30bd 1f91 223c
00000240: 0d39 31bd 0fc2 783d e256 9d3a 1771 9ebc
00000250: 9e75 d0bc bdff 483d 0b89 d3bc b269 3abb
00000260: 3d4d df3b 2c85 50bd 052f 973d 498b a0bd
00000270: 14a9 4b3d a992 94bd d092 0fbc fa20 5bbc
00000280: a890 2e3c ba8b 3cbd 7a61 91bd 0a8e 1abd
00000290: 18be 8c3d 87c8 bebc 1cc3 03bd b524 9d3d
000002a0: a5a9 563d 320a b33d b8eb 72bc 0323 60bd
000002b0: 0573 773d fec3 95bc f867 0c3d 2f74 a63d
000002c0: ea38 52bc fd5c 50bd 9dea a13c 04da 343d
000002d0: d1db b3bd 9f07 c23c 1fd5 4dbd a3d4 75bd
000002e0: 503d 883d 9755 10bd cf73 613c e042 4738
000002f0: 5703 6bbd d936 003d bc2e 8e3d f109 183c
00000300: d04d aabd 5fd7 3bbd 8354 2a3d 2652 813a
00000310: 91b7 2fbc 327f ea3c 3823 b2bc 9c01 86bd
00000320: d0ef 09bd ed70 9dbd 7e66 cabb e5cd e7bc
00000330: 7ee8 463d 7bf1 cdbc f90f f03c ba94 633d
00000340: 4738 903d 84bd 723d e277 343d e82a bd3c
00000350: 0a37 23bc 837e 7abd 81b3 9abd e397 08bd
00000360: c102 533d feaf 9f3d 804d 89bd 14a0 8d3d
00000370: 696d 5b3b 14b9 94bc 08fa c6bc 855b 873d
00000380: ea1a c03c 8ce1 943d 174e 0d3d c9b9 bf3c
00000390: 5d7c 81bd f0ce 0bbd a783 243d 7c26 953d
000003a0: 3612 823d 6d03 44bd 2ee3 90bc ef5f 223c
000003b0: c2cc afbd a74a d03c cb17 06bc 77df 65bc
000003c0: b573 6cbd 5879 1abd 228a 43bc 5f4b 4fbd
000003d0: 6ce1 2d3c aa91 803d ed4b 7f3d 8964 20bd
000003e0: 0a06 8dbd 5fef 2d3d 2525 c03c 745e a0bd
000003f0: 7132 2ebd 9ed5 a2bd 6f7c 923c fd18 de3b

bias f4 [64]
0.07807098 -0.034711953 -0.015943239 -0.08233603 0.032320008 0.015760785 0.043181468 0.06818757
-0.019912433 0.05565579 -0.061153565 0.017649578 0.05388341 -0.026109563 0.08336731 0.07403194
-0.07282229 0.085421085 0.06850619 0.076229714 0.033601183 -0.07946054 -0.032068744 0.024834396
0.08139146 -0.01702188 0.070965186 0.07526647 0.0045682956 -0.08494549 0.07992877 0.04557469
0.08346459 -0.0050496194 0.04346076 -0.07060495 -0.04688593 -0.03441507 0.08184569 -0.060782216
0.06190264 0.008810366 -0.055931475 -0.025282666 -0.06424466 -0.06317871 0.002852066 -0.07067304
0.038317963 0.08537188 0.06413379 -0.05734608 0.01240929 -0.024144636 -0.00809094 -0.0685069
0.037637595 -0.03157469 -0.019713731 0.036859564 0.087495185 0.062630676 -0.07044818 0.010426788
00000000: aee3 9f3d 1f2e 0ebd 659b 82bc cb9f a8bd
00000010: fc61 043d c31c 813c 0ddf 303d eda5 8b3d
00000020: 661f a3bc 53f7 633d 297c 7abd d995 903c
00000030: dab4 5c3d b9e3 d5bc 7bbc aa3d 0f9e 973d
00000040: da23 95bd 40f1 ae3d f94c 8c3d 531e 9c3d
00000050: 65a1 093d 35bc a2bd 845a 03bd 8171 cb3c
00000060: 91b0 a63d 7871 8bbc 3256 913d 4f25 9a3d
00000070: a4b1 953b e7f7 adbd b2b1 a33d 87ac 3a3d
00000080: 7cef aa3d 4777 a5bb e903 323d 5499 90bd
00000090: 760b 40bd d1f6 0cbd b79e a73d c6f6 78bd
000000a0: 9f8d 7d3d 5a59 103c 6718 65bd 981d cfbc
000000b0: b492 83bd d763 81bd bae9 3a3b 07bd 90bd
000000c0: 4cf3 1c3d 74d7 ae3d 9458 833d b9e3 6abd
000000d0: 5650 4b3c f9ca c5bc dd8f 04bc 584d 8cbd
000000e0: e129 1a3d 7654 01bd b17e a1bc 0efa 163d
000000f0: ad30 b33d 8344 803d 2347 90bd 1ed5 2a3c

weight f4 [7, 64]
-0.010320072 0.008541595 -0.0063735596 -0.004374492 0.016489489 -0.008817934 -0.0052346406 -0.00060291105
0.028345944 -0.0144224195 0.0052329805 -0.0072079985 -0.0029104159 -0.0025824986 -0.0073602307 0.014644608
0.003396726 -0.0018411506 0.012909781 0.01107278 -0.010939049 0.009981759 0.016913004 0.0010899082
0.021523872 -0.0012849948 0.00245873 0.012444613 -0.01568255 -0.004214859 -0.030784603 -0.016715031
-0.019251125 -0.00078767206 0.0183275 0.0056615686 0.027328731 -0.010121268 -0.000516617 0.0018271862
0.01056216 -0.0028064318 -0.005609647 0.013413444 0.01740066 0.011340098 -0.0074574626 -0.009130734
-0.0012112173 0.015260128 -0.009871291 0.01337383 0.03201312 0.0011188601 0.011293246 0.008115582
0.008512125 0.0001403227 -0.0123986695 -0.0023512808 -0.005332503 -0.005149574 0.006901291 0.022684796
0.0014283775 0.011860545 0.020395834 0.014172522 0.015953384 -0.01714797 -0.022206685 -0.006602244
-0.0018780765 0.0061199325 0.0026368643 0.009685003 -0.034190584 -0.011869538 0.007435271 -0.011459114
-0.0073621226 -0.013281812 0.00018818688 0.0016991269 0.009639731 0.012901549 -0.023540985 0.010801529
-0.01012664 -0.0057837795 0.011321038 0.004568069 -0.016181465 0.010551874 -0.007072606 0.0023460216
-0.0024891514 -0.006007002 0.019046696 -0.01691818 -0.0076126345 0.008231612 -0.0041119102 0.004868805
0.007098573 0.004071648 0.0070003294 0.0018592249 -0.0037352594 0.0011663078 0.0014226319 0.0072239805
0.016178077 -0.010064877 0.0046299207 0.003073319 -0.003361896 0.00089027965 -0.029450627 -0.013955232
0.036940936 0.011824858 -0.0059236083 -0.007128753 0.005152232 -0.0048452993 -0.0127855195 0.017604828
-0.018729955 0.0068143057 -0.015743108 0.015585002 -0.01658992 0.0006200623 0.013959237 -0.009529336
-0.018498285 0.0027194994 -0.00069425773 0.014126635 0.00018287518 0.011833312 -0.00033638458 -0.0013863043
0.020275751 -0.003706057 0.0019910757 0.0034709794 0.0015743008 -0.0046916483 0.01082911 -0.008606194
-0.0105506545 0.00048486702 -0.0019423757 -0.015814269 -0.015471109 -0.01400099 -0.012692502 0.01818114
0.0059571047 -0.0012085564 0.033835262 0.0019649244 0.008972403 -0.017874993 0.0012873606 -0.0040601715
-0.01047036 0.0142148845 -0.0016286789 -0.0027811737 0.02290284 -0.017891414 0.012399051 0.0048276214
-0.008394857 -0.008754699 0.00077152584 -0.0076639173 0.0053746593 -0.0036085146 -0.027438845 0.012000309
0.00171944 -0.01339793 0.019626878 0.00747693 -0.008944344 0.027869003 -0.004397381 0.017747533
0.0045580496 -0.00097551546 0.009220207 0.009472831 -0.004925411 0.009682478 -0.02054537 -0.015264563
0.009132803 0.009752025 0.006017474 0.0075507388 0.017066786 -0.014331411 0.017513677 0.0028659436
-0.018535916 -0.00039336088 0.014416227 0.005827897 -0.03583 0.0073512 0.0016594456 0.004572357
0.0156115685 -0.0046304157 -0.026965758 -0.026103918 0.018951971 -0.021375317 -0.0076301275 0.013125866
-0.0053184093 -0.020071909 -0.002238847 0.01192498 0.024458997 0.016491225 -0.0010150189 0.0039621266
-0.004600363 -0.009876034 -0.0024966893 0.0036830027 0.0039627394 -0.0054438235 0.010703395 -0.0100902645
-0.0014068607 -0.0113779465 0.0019668418 0.005814317 -0.013433003 0.00055635715 -0.009922527 -0.0035581666
0.015984097 0.0031214766 0.019372977 0.0072771865 0.009834326 -0.010580746 0.00061049935 -0.007012472
00000000: 8515 29bc 0cf2 0b3c 4bd9 d0bb e657 8fbb
00000010: f714 873c 1979 10bc 5987 abbb ad0c 1eba
00000020: c135 e83c 034c 6cbc 6c79 ab3b 1331 ecbb
00000030: adbc 3ebb 233f 29bb 172e f1bb f0ef 6f3c
00000040: 9b9b 5e3b c352 f1ba 8c83 533c 9b6a 353c
00000050: b239 33bc 888a 233c 248d 8a3c 40db 8e3a
00000060: d552 b03c 456d a8ba a522 213b 7de4 4b3c
00000070: b178 80bc cd1c 8abb fe2f fcbc f6ed 88bc
00000080: 89b4 9dbc c77b 4eba 8e23 963c ae84 b93b
00000090: 81e0 df3c add3 25bc 946d 07ba 327e ef3a
000000a0: e90c 2d3c 1dec 37bb 21d1 b7bb 10c4 5b3c
000000b0: d48b 8e3c d2cb 393c bb5d f4bb 1399 15bc
000000c0: b5c1 9eba 9e05 7a3c 32bb 21bc e91d 5b3c
000000d0: 3020 033d b7a6 923a 4f07 393c 38f7 043c
000000e0: 7176 0b3c 9723 1339 ca23 4bbc f217 1abb
000000f0: 47bc aebb c2bd a8bb 3a24 e23b 77d5 b93c
00000100: 6538 bb3a bb52 423c 2a15 a73c de33 683c
00000110: acb0 823c e679 8cbc cbea b5bc a357 d8bb
00000120: ca29 f6ba b789 c83b 3ecf 2c3b d9ad 1e3c
00000130: 6d0b 0cbd 7378 42bc 93a3 f33b 02bf 3bbc
00000140: f63d f1bb f59b 59bc 0854 4539 3db5 de3a
00000150: f6ef 1d3c 0561 533c 06d9 c0bc e5f8 303c
00000160: 35ea 25bc dc85 bdbb e07b 393c bdaf 953b
00000170: fe8e 84bc c4e1 2c3c 52c1 e7bb b6bf 193b
00000180: 0821 23bb 63d6 c4bb d107 9c3c ff97 8abc
00000190: 6873 f9bb e2dd 063c 34bd 86bb 7f8a 9f3b
000001a0: 259b e83b 766b 853b 0563 e53b 3cb1 f33a
000001b0: 41cb 74bb ccde 983a 9b77 ba3a 24b7 ec3b
000001c0: e387 843c 27e7 24bc 97b6 973b bd69 493b
000001d0: 4153 5cbb a861 693a 7142 f1bc 7ca4 64bc
000001e0: 614f 173d 0dbd 413c d41a c2bb 5098 e9bb
000001f0: 0ed4 a83b 51c5 9ebb 5b7a 51bc 0038 903c
00000200: 906f 99bc 8a4a df3b b1f7 80bc 3c58 7f3c
00000210: 95e7 87bc ad8b 223a 49b5 643c ef20 1cbc
00000220: b789 97bc a139 323b d9fe 35ba 6773 673c
00000230: 2fc2 3f39 82e0 413c c65c b0b9 a7b4 b5ba
00000240: 5519 a63c 52e1 72bb b57c 023b 5f79 633b
00000250: c558 ce3a 66bc 99bb 946c 313c fe00 0dbc
00000260: a7dc 2cbc c035 fe39 5097 feba ed8c 81bc
00000270: 897a 7dbc 6964 65bc 36f4 4fbc 9df0 943c
00000280: d133 c33b 6c68 9eba d896 0a3d f6c5 003b
00000290: fc00 133c 946e 92bc a7bc a83a 300b 85bb
000002a0: df8b 2bbc 8ce5 683c 6579 d5ba 5a44 36bb
000002b0: bd9e bb3c 0491 92bc 6425 4b3c 0631 9e3b
000002c0: 958a 09bc de6f 0fbc 3940 4a3a 9921 fbbb
000002d0: e91d b03b d47c 6cbb 6ec7 e0bc f29c 443c
000002e0: d55e e13a fe82 5bbc 8cc8 a03c 0901 f53b
000002f0: 4c8b 12bc 894d e43c e817 90bb 4663 913c
00000300: b15b 953b bcb9 7fba 5a10 173c ef33 1b3c
00000310: 5865 a1bb 42a3 1e3c c44e a8bc 3818 7abc
00000320: c1a1 153c f5c6 1f3c 3b2e c53b 306c f73b
00000330: a5cf 8b3c 4bce 6abc d878 8f3c 8ed2 3b3b
00000340: a2d8 97bc 013c ceb9 0a32 6c3c f2f7 be3b
00000350: 7ac2 12bd 56e2 f03b c181 d93a b6d3 953b
00000360: aac7 7f3c beba 97bb 4be7 dcbc e2d7 d5bc
00000370: 2a41 9b3c 4a1b afbc 2606 fabb df0d 573c
00000380: 0d46 aebb d86d a4bc 9fb9 12bb fe60 433c
00000390: 3c5e c83c 9b18 873c 620a 85ba bad4 813b
000003a0: a4be 96bb 17cf 21bc 7f9f 23bb 885e 713b
000003b0: ded9 813b 1a62 b2bb 4b5d 2f3c a351 25bc
000003c0: 6966 b8ba 916a 3abc 21e6 003b 0786 be3b
000003d0: 1916 5cbc 7fd8 113a 1892 22bc 2130 69bb
000003e0: 15f1 823c b091 4c3b 14b4 9e3c 7775 ee3b
000003f0: 2720 213c de5a 2dbc eb09 203a e1c8 e5bb

bias f4 [7]
-5.8541198e-05 -5.8361893e-05 -5.8324746e-05 -5.835847e-05 -5.9982543e-05 6.0340608e-05 -5.866833e-05
00000000: 228a 75b8 9bc9 74b8 b8a1 74b8 eec5 74b8
00000010: c495 7bb8 3c16 7d38 a412 76b8
