StockEnv_PPO_0/actor__000000000368_00168.673.pt (torch, 67930 bytes, 9 tensors)

action_std_log f4 [1, 7]
000000 ff ff ff 37 ff ff ff 37 ff ff ff 37 fe ff ff 37
       3.0517576e-05 3.0517576e-05 3.0517576e-05 3.0517574e-05
000010 ff ff ff 37 fe ff ff 37 ff ff ff 37
       3.0517576e-05 3.0517574e-05 3.0517576e-05

state_avg f4 [52]
000000 00 00 00 00 00 00 00 00 00 00 00 00 00 00 00 00
       0.0 0.0 0.0 0.0
000010 00 00 00 00 00 00 00 00 00 00 00 00 00 00 00 00
       0.0 0.0 0.0 0.0
000020 00 00 00 00 00 00 00 00 00 00 00 00 00 00 00 00
       0.0 0.0 0.0 0.0
000030 00 00 00 00 00 00 00 00 00 00 00 00 00 00 00 00
       0.0 0.0 0.0 0.0
000040 00 00 00 00 00 00 00 00 00 00 00 00 00 00 00 00
       0.0 0.0 0.0 0.0
000050 00 00 00 00 00 00 00 00 00 00 00 00 00 00 00 00
       0.0 0.0 0.0 0.0
000060 00 00 00 00 00 00 00 00 00 00 00 00 00 00 00 00
       0.0 0.0 0.0 0.0
000070 00 00 00 00 00 00 00 00 00 00 00 00 00 00 00 00
       0.0 0.0 0.0 0.0
000080 00 00 00 00 00 00 00 00 00 00 00 00 00 00 00 00
       0.0 0.0 0.0 0.0
000090 00 00 00 00 00 00 00 00 00 00 00 00 00 00 00 00
       0.0 0.0 0.0 0.0
0000a0 00 00 00 00 00 00 00 00 00 00 00 00 00 00 00 00
       0.0 0.0 0.0 0.0
0000b0 00 00 00 00 00 00 00 00 00 00 00 00 00 00 00 00
       0.0 0.0 0.0 0.0
0000c0 00 00 00 00 00 00 00 00 00 00 00 00 00 00 00 00
       0.0 0.0 0.0 0.0

state_std f4 [52]
000000 00 00 80 3f 00 00 80 3f 00 00 80 3f 00 00 80 3f
       1.0 1.0 1.0 1.0
000010 00 00 80 3f 00 00 80 3f 00 00 80 3f 00 00 80 3f
       1.0 1.0 1.0 1.0
000020 00 00 80 3f 00 00 80 3f 00 00 80 3f 00 00 80 3f
       1.0 1.0 1.0 1.0
000030 00 00 80 3f 00 00 80 3f 00 00 80 3f 00 00 80 3f
       1.0 1.0 1.0 1.0
000040 00 00 80 3f 00 00 80 3f 00 00 80 3f 00 00 80 3f
       1.0 1.0 1.0 1.0
000050 00 00 80 3f 00 00 80 3f 00 00 80 3f 00 00 80 3f
       1.0 1.0 1.0 1.0
000060 00 00 80 3f 00 00 80 3f 00 00 80 3f 00 00 80 3f
       1.0 1.0 1.0 1.0
000070 00 00 80 3f 00 00 80 3f 00 00 80 3f 00 00 80 3f
       1.0 1.0 1.0 1.0
000080 00 00 80 3f 00 00 80 3f 00 00 80 3f 00 00 80 3f
       1.0 1.0 1.0 1.0
000090 00 00 80 3f 00 00 80 3f 00 00 80 3f 00 00 80 3f
       1.0 1.0 1.0 1.0
0000a0 00 00 80 3f 00 00 80 3f 00 00 80 3f 00 00 80 3f
       1.0 1.0 1.0 1.0
0000b0 00 00 80 3f 00 00 80 3f 00 00 80 3f 00 00 80 3f
       1.0 1.0 1.0 1.0
0000c0 00 00 80 3f 00 00 80 3f 00 00 80 3f 00 00 80 3f
       1.0 1.0 1.0 1.0

weight f4 [128, 52]
000000 19 2a 63 bd 92 c6 ab bd ab 4a 1b bd 0c c8 84 bd
       -0.05546007 -0.08387484 -0.037913006 -0.064834684
000010 3d 52 d0 3d b9 8b 30 bc e6 66 49 3c e0 86 a5 3d
       0.10171936 -0.0107755 0.012292599 0.08082366
000020 73 af b3 3d 82 5b 46 3d 36 d3 2a bd 21 e6 2c bd
       0.08773699 0.048427112 -0.041705333 -0.042211656
000030 11 fa 08 3c 94 65 de bd a2 14 04 3d e9 34 d7 bd
       0.008360402 -0.10859218 0.03224624 -0.10508139
000040 64 34 63 3d ab 8b c4 bd aa 6b 9d bc 66 50 b7 bc
       0.055469885 -0.09596952 -0.019216377 -0.022377204
000050 f7 0a 27 3d 46 a9 b7 bd 84 28 0a 3e ec b8 d4 bd
       0.04078194 -0.08967833 0.13492018 -0.103868335
000060 de f1 0d be 1a 8d cf 3d 85 21 ab bd 59 db ff 3d
       -0.13861796 0.10134335 -0.08356003 0.12493009
000070 b9 db bc 3d e7 01 8a bd 85 30 fa bd cf 22 05 be
       0.09221596 -0.06738644 -0.122162856 -0.1300156
000080 6d d5 9f bc e9 22 a3 3d 36 29 e1 3d 81 1d a1 bd
       -0.019510949 0.07965643 0.109941885 -0.078669555
000090 7f d6 f1 bd b5 b9 6c bd bd 17 08 3e a8 ae ec bd
       -0.1180849 -0.05779429 0.13290305 -0.115567505
0000a0 62 b8 cb bd 38 1e 9c 3d c9 17 43 bd 2b c5 9d bd
       -0.099472776 0.07622951 -0.047630105 -0.077036224
0000b0 0f b3 0b be 02 de 3c bd 6d 71 c5 3c 86 cb 85 bc
       -0.13642524 -0.04611016 0.024101937 -0.0163324
0000c0 26 66 47 3d f1 5a 93 bd 11 68 a1 3c 7a 1d 74 bd
       0.0486814 -0.0719508 0.019702943 -0.059598424
0000d0 b2 c0 bd bd 3a 3a d2 bc d2 38 6d 3d 44 1a 02 be
       -0.09265269 -0.02566253 0.057915516 -0.12705332
0000e0 70 d9 80 3d 20 b2 be 3c 19 c9 46 bc 47 d7 8c bd
       0.06291473 0.023278296 -0.012132906 -0.068769984
0000f0 94 dd fd 3c 65 01 ac 3d 6c 32 73 3d 8e be f6 3c
       0.030989446 0.083987035 0.059374258 0.03012016
000100 cc c0 66 bc c8 cf 0c bd a9 9f 12 bc 8f 53 d5 bd
       -0.014084052 -0.034377843 -0.008949199 -0.10416328
000110 83 de 01 38 85 b5 d6 3b dc 29 41 bc 1b 36 fc 3d
       3.0963227e-05 0.0065524005 -0.011789765 0.12315007
000120 ed 71 b2 3d 6b 99 21 3d ab 00 5c bd c2 77 ba 3d
       0.08713136 0.03945295 -0.053711575 0.09104873
000130 ba d4 ac 3d 1d 9f 05 bc 91 90 61 bc 98 ed a3 3d
       0.08439012 -0.008155611 -0.0137673775 0.08004302
000140 c4 f4 b1 3c 88 bb 05 3e b4 41 fc 3d 00 21 a5 3d
       0.021723159 0.13059819 0.123172194 0.08062935
000150 46 2e 7d bd 64 63 47 3d f2 05 11 3d 77 ae 4a 3d
       -0.061811708 0.04867877 0.03540606 0.04948279
000160 39 79 0c 3e 9a fa f7 bd f2 7d e2 bc 34 f3 d0 bd
       0.13718118 -0.12108345 -0.027647946 -0.10202637
000170 0c 23 f3 bb 38 f7 a2 3d 15 2f 9e bd 02 2c f9 3d
       -0.0074199494 0.079573095 -0.07723824 0.12166597
000180 cd 16 b5 bd 9e a9 07 3e 6d ba e6 3d e2 0a f3 bc
       -0.088422395 0.13248298 0.11266027 -0.029668275
000190 4f 22 f5 bc 76 0c ea bc 8f fe a1 bd ad 56 60 bc
       -0.029923586 -0.028570395 -0.07909881 -0.01369254
0001a0 a2 5c c8 bd af 29 ae bd ea 7a 35 bd 32 3a ab 3d
       -0.09783293 -0.08504044 -0.044306673 0.08360709
0001b0 76 e0 06 be 4a be bd 3d f3 86 5b bd 81 3c 7d bc
       -0.13171563 0.092648104 -0.053595494 -0.01545632
0001c0 3d a0 8e 3d e0 e1 b2 bd 11 82 f3 bd bb bb 65 3c
       0.06964157 -0.087344885 -0.118900426 0.014021809
0001d0 6e 4e c0 3d 53 36 05 3d 3b 72 a5 bd 01 69 e9 3d
       0.09389959 0.03252251 -0.08078428 0.11396981
0001e0 d3 38 03 3e 27 c7 4a bc bc cc 09 be 07 d9 0a 3e
       0.12814645 -0.012376583 -0.13457006 0.13559352
0001f0 e0 40 fb 3d 4e a0 97 3d d1 1f f4 3d a9 b5 bf bd
       0.12268233 0.074036226 0.11920131 -0.09360821
000200 97 39 04 be b4 0a 7b bd 28 5b 9b bd 11 f5 89 3d
       -0.12912594 -0.061289504 -0.07585746 0.06736196
000210 50 83 f1 bd 4d 94 b3 3d a4 fb ff bd 4e d0 6c bd
       -0.11792624 0.087685205 -0.124991685 -0.057815842
000220 94 b7 b5 bc 22 93 da bd c7 07 09 3e b0 f0 f3 bd
       -0.022182263 -0.106725946 0.13381873 -0.11911142
000230 55 da 51 bd 78 6a 31 bd 05 aa 0d bb c3 7e 0c bc
       -0.05123361 -0.043314427 -0.0021616232 -0.008575144
000240 2c 86 03 3e 0f c1 9c bc 54 5a d2 3c 53 35 04 3e
       0.12844151 -0.019135026 0.025677837 0.12910967
000250 11 6d 67 bd 90 fb bf bd 7e 5a e0 3c c8 cf e5 3b
       -0.0565005 -0.093741536 0.0273869 0.007013295
000260 f0 4a cc 3b 03 7c f8 3c 08 ac b1 bb 3f a4 6f bd
       0.006234519 0.03033257 -0.005422119 -0.058506247
000270 90 d6 91 bd 19 1a 04 3e a0 df 3c bc 27 65 f6 3d
       -0.07121003 0.1290058 -0.011527926 0.12031012
000280 28 4c c8 3d 52 41 19 bd 90 d0 0b be d3 00 85 bd
       0.09780151 -0.03741581 -0.13653779 -0.06494298
000290 5a 9e 2e 3d 74 58 ea bc 86 40 e0 3d de 2a fa bd
       0.042631485 -0.02860663 0.10949807 -0.122152075
0002a0 8d c4 08 be 03 7b dd bd 1d 00 b9 3d 4c c7 a5 bd
       -0.13356228 -0.10814478 0.09033225 -0.080946535
0002b0 da 42 03 3d 9b ad 7f 3d a4 c0 22 bd f0 40 07 be
       0.032046176 0.062421422 -0.039734498 -0.13208365
0002c0 ad 9d 85 3d e4 dc 8a bc 26 01 61 bd d4 ee bf bd
       0.06524215 -0.016951032 -0.054932736 -0.09371725
0002d0 de 21 01 be 39 22 a4 3d aa 82 cb bd 93 7f 2b bd
       -0.12610576 0.0801434 -0.099370316 -0.04186971
0002e0 95 80 85 3d 4a fa a1 3d 8e 78 0a be 66 13 e6 bd
       0.06518666 0.07909067 -0.1352255 -0.11234169
0002f0 e4 d9 d5 3d ff c4 0c bd 45 0e 92 3d 83 9d 64 bd
       0.1044195 -0.034367558 0.07131628 -0.055814277
000300 3b 98 e7 3d 25 1b ad bd fc e5 cf 3d ed 6d 27 3d
       0.113083325 -0.08452443 0.10151288 0.040876318
000310 c0 c5 fa bd 28 63 9f bd c5 79 0f 3d d7 45 e7 3d
       -0.12244749 -0.077825844 0.035028238 0.11292618
000320 87 da ad bd f4 b5 03 bd 1b 30 f8 3d 7d 88 b8 bb
       -0.084889464 -0.032155946 0.121185504 -0.005631505
000330 b9 48 c8 3d c0 7b 9e 3d ca 31 93 bc 18 3f 79 3c
       0.09779496 0.07738447 -0.017968077 0.015212797
000340 49 79 14 3c dd 04 05 3e d7 18 cb bd eb fe 6d bd
       0.00906212 0.12990136 -0.09916847 -0.058104437
000350 15 26 1a 3d 65 32 d9 bd e3 63 93 bd c3 64 c7 bd
       0.037633974 -0.10605315 -0.07196786 -0.09736016
000360 6b 72 18 bc ed 32 bc 3d 0b df 40 3d d0 e3 80 3d
       -0.009304623 0.09189401 0.04708771 0.06293452
000370 eb 30 9d bd b5 dc 4e 3d 33 cc 49 3d 88 c7 d3 bd
       -0.07675346 0.05050345 0.049267005 -0.10340792
000380 9b 73 ef 3d 42 2d 79 3d fe 5f ca 3d eb 24 7c 3d
       0.11691972 0.060834177 0.0988159 0.061558645
000390 63 22 ff 3d 50 41 80 3d a4 67 de bc b8 a5 82 3d
       0.124577306 0.06262457 -0.02714903 0.063792646
0003a0 5c db cc bd 40 f8 c4 bd a8 08 51 bd e6 c6 66 3a
       -0.10002777 -0.096176624 -0.051033646 0.0008803442
0003b0 31 b5 fb 3d fd 05 ed 3d 29 b1 02 bd c1 8b 72 bb
       0.12290419 0.11573408 -0.031907234 -0.003700957
0003c0 3d d5 b6 3d 0c 2e 19 bd 6b b1 8b 3d ca bc 9d bb
       0.08927391 -0.03739743 0.06820949 -0.004813765
0003d0 da 7d b1 bb 4d 56 d5 3d 18 ec 06 be c8 ac 09 3e
       -0.005416614 0.10416851 -0.13176 0.13444817
0003e0 4a cf c4 3d fe 95 b6 bd 8e c7 14 bd 8c 13 ee 3c
       0.0960985 -0.089153275 -0.036323123 0.029062055
0003f0 1b ae b2 3c fc 6e d9 bd b0 8c f8 3b 6f 6c c5 bc
       0.021811536 -0.10616872 0.0075851306 -0.024099557

bias f4 [128]
000000 3f 44 eb bd 7c 8a 88 bd 0c e7 38 3d 11 e5 eb 3d
       -0.11487626 -0.06667039 0.04514222 0.115183
000010 42 bf 94 3d 8e 95 43 3d 3b dc a3 3c 5a c0 01 be
       0.07263042 0.04775005 0.020002475 -0.12671033
000020 1a 40 55 bd 10 76 ce 3d 73 10 85 3c 36 3e 5d 3b
       -0.052063085 0.100811124 0.016243195 0.0033759004
000030 05 f0 ad bd 7a 36 2a 3d ff dd 09 bd 8a f3 44 3d
       -0.08493046 0.04155586 -0.033658978 0.04808382
000040 82 97 27 3d 1f 5f b3 bd d3 ad 47 bd 0a db 02 3e
       0.040915973 -0.08758377 -0.048749756 0.1277887
000050 d7 5d 8e 3d a4 da 7b bd 91 ec 72 3d b2 0b 39 bd
       0.06951492 -0.06148781 0.05930764 -0.04517717
000060 c9 7c f0 bc e5 ce e1 bd 4a ee 9d bc 0f 0e 22 bd
       -0.029356377 -0.1102579 -0.019278664 -0.03956419
000070 59 14 bb 3d a7 bd 0c bc 96 12 fe bd 14 4d d3 3c
       0.091347404 -0.0085901385 -0.12405889 0.02579359
000080 2e ab 92 3d 93 e4 8f bd fe 29 36 bd 03 35 bc bd
       0.07161556 -0.07026019 -0.04447364 -0.09189799
000090 45 72 c6 bd f2 a6 e6 bd 3b 3f d7 3d 63 c6 ce 3c
       -0.09689764 -0.11262311 0.10510107 0.025241083
0000a0 23 fa cd bb 1a 7b aa 3d 62 90 7e 3c 6b f5 42 3d
       -0.006285922 0.08324261 0.015537353 0.04759733
0000b0 9c 58 ff bd 06 fc bf 3d a1 78 f9 bd 46 f7 ed 3d
       -0.12468073 0.093742415 -0.12181211 0.11619429
0000c0 7e c9 07 bd 36 04 96 3d d6 50 27 3d c1 4f ff 3c
       -0.033151142 0.07325022 0.040848576 0.03116596
0000d0 db 74 01 bd 0b 53 8a bc 71 d3 f3 3d 7f 2d f5 bd
       -0.031605583 -0.016885301 0.119055636 -0.11971568
0000e0 57 6d d6 bc 2a be c8 3c a2 55 97 bd 24 b9 89 3d
       -0.026175184 0.02450474 -0.0738938 0.06724766
0000f0 17 95 29 bd 5e b7 9f bc bf 23 b7 3d a6 d2 c9 3d
       -0.04140195 -0.019496616 0.08942365 0.09854631
000100 e3 f9 d6 3d 25 a5 77 bc da f2 ad 3c 39 66 d5 bd
       0.10496881 -0.015115057 0.021233965 -0.10419888
000110 8c 7e fc bd 09 a2 d9 bd b4 ae 06 be 06 6f 55 3d
       -0.123288244 -0.10626609 -0.13152581 0.052107833
000120 2c e3 dd bc 2e 97 04 be 50 e0 af 3c e2 74 fa bd
       -0.027085863 -0.12948295 0.021469265 -0.12229325
000130 6a 87 3d 3c 99 f5 9f 3c b1 fc 33 3d 61 b7 9d 3c
       0.01156793 0.01952629 0.043942157 0.019252481
000140 5d a2 a0 bd 1b 0f 57 bd 22 ea 0a be 58 26 d0 38
       -0.07843468 -0.05250464 -0.13565877 9.925355e-05
000150 79 9e 08 bc 45 fb f7 bd 3d 3a 4d 3d c3 72 db 3d
       -0.008338564 -0.12108473 0.05010437 0.107152484
000160 32 ae 04 3e 37 cf 0b 3e a2 5f 04 bc 5a 67 c4 bd
       0.12957075 0.13653265 -0.008079441 -0.09590025
000170 d3 8e bf bd e9 f9 11 3d d6 43 7a bd f0 07 43 3c
       -0.093534134 0.035638724 -0.06109985 0.011903748
000180 9d 24 06 be 1b a5 dd 3c 4e 81 8a bc ba 36 ba bd
       -0.13099904 0.027056267 -0.01690736 -0.090924695
000190 6a 49 90 bc 18 cc 20 bd e6 d5 a7 3c 4a 04 0c be
       -0.017613132 -0.03925714 0.020487737 -0.13673511
0001a0 3a 53 71 ba b4 29 e7 3d a1 16 48 bd 9d 70 6e bd
       -0.0009205822 0.11287251 -0.048849706 -0.058212865
0001b0 82 09 b0 bc 96 1d b6 bb cc 1c d6 bd d6 4f e6 bd
       -0.021488909 -0.005557726 -0.10454711 -0.11245696
0001c0 5c 68 db 3d e6 8a 08 be b3 b8 3a bd e1 0b 31 bd
       0.10713264 -0.13334236 -0.0455863 -0.04322422
0001d0 b9 2e e9 3c 11 19 92 3d 64 e2 9c bd 95 32 95 3c
       0.028464662 0.07133687 -0.07660368 0.018212596
0001e0 3b f5 aa bd e7 13 8a bd ce 1a 1c bd e5 02 87 bd
       -0.08347555 -0.06742077 -0.0381115 -0.06592349
0001f0 ff 44 b6 3c 6e 6e a1 3d 20 20 1c bd 89 1b bf 3d
       0.022249697 0.07882391 -0.038116574 0.09331424

weight f4 [64, 128]
000000 dd 7e d8 bc 7b 7f 87 3d a6 88 89 3d 8b a5 6e 3d
       -0.02642768 0.06616112 0.06715517 0.058263343
000010 83 7e a3 bd c5 5e a4 3d 8c c8 0e bc 43 96 60 bd
       -0.079831146 0.08025888 -0.008714806 -0.0548308
000020 0b ac 5f 3d 18 f1 a3 bd 70 a7 6f 3c 81 2a 6c 39
       0.054607432 -0.08004969 0.014627323 0.00022522548
000030 4f 99 a1 3c 39 4c a8 3d f7 01 4f bd 84 31 4f bd
       0.019726424 0.08217663 -0.050538983 -0.05058433
000040 01 15 eb 3b f8 50 b1 3c 50 62 8b bd 1f 62 50 3d
       0.0071741347 0.021645054 -0.06805861 0.050874826
000050 6d 20 a0 bc 36 08 80 bd d7 b0 48 bc fd 48 91 bd
       -0.019546712 -0.06251566 -0.012249193 -0.070939995
000060 76 cb 2b 3d 19 51 9b bd 5e a9 f0 3c 48 d4 3f bd
       0.041942082 -0.075838275 0.029377636 -0.046833307
000070 39 f3 29 3d a8 fe 82 3d 0d f6 1c bc 49 7d 45 3d
       0.04149172 0.06396228 -0.009580147 0.048215184
000080 78 da 8c 3d 76 a7 ae 3d 97 13 9d 3d 6e 70 69 bc
       0.06877607 0.085280344 0.07669752 -0.014247997
000090 f8 c4 a1 bd ed 30 24 3d 8f ea ec ba 34 e2 39 bc
       -0.07898897 0.04008572 -0.0018075275 -0.011345435
0000a0 f4 eb 0b 3d b1 ab 62 3d 15 14 98 bd bf 70 18 bc
       0.03416057 0.05533952 -0.07425705 -0.0093042245
0000b0 6d 7e 72 bd 94 ec a2 3d cf ba b1 bd d4 28 2c 3c
       -0.0592026 0.0795528 -0.08678209 0.010507781
0000c0 91 36 4d 3d 00 57 9e bd f3 aa 1c 3d 91 d1 14 3d
       0.050100867 -0.07731438 0.038248967 0.03633267
0000d0 da 92 85 3c ca 17 b2 3b b1 8b a7 bd 53 ff 1c 3d
       0.016305376 0.005434965 -0.08180941 0.038329434
0000e0 23 79 a0 3d f4 a1 fd 3c 1b ac 3c bd ea 4a 73 3c
       0.07835605 0.030961014 -0.04606257 0.014849404
0000f0 db 61 ed bc 9b 14 a7 bd fc 01 e5 3b ef 87 ac 3d
       -0.028977325 -0.08158227 0.006988762 0.08424365
000100 ad c0 37 bd 2f 5b 36 bd 16 5c 69 bd 87 72 d6 bc
       -0.044861484 -0.044520553 -0.056972586 -0.026177658
000110 17 e0 ad 3d 6a b9 12 3d 30 13 e3 3c b8 cf a2 3d
       0.08490007 0.035821356 0.02771911 0.079497755
000120 8a b9 2c 3d 4f 8e 9a bc 8e f4 96 bd 8d 9e 84 3d
       0.04216913 -0.018866686 -0.07370864 0.06475554
000130 d1 8c fd bc b6 8f a6 3d 55 df dd 3c 82 95 13 bd
       -0.030950936 0.081328794 0.027084032 -0.036031254
000140 0f 60 ac 3d 77 34 2a 3d db 14 71 3d 67 67 a0 bd
       0.08416759 0.04155394 0.05885778 -0.078322224
000150 52 01 20 bd 0a e3 48 3d 36 d9 b3 3c 93 c2 a4 3d
       -0.03906376 0.049044646 0.02195416 0.080449246
000160 82 5c 2e 3d 08 72 da 3c e4 fd 83 3d 12 c3 38 3d
       0.04256869 0.026665702 0.0644491 0.04510791
000170 df d4 14 3d 98 0d b2 3d 5d b9 09 3d 0e a7 79 3d
       0.036335822 0.08693999 0.03362404 0.06095033
000180 1b 60 96 bd d1 e1 b9 3c 49 cc 40 3b 28 f3 61 3b
       -0.073425494 0.022690685 0.0029418638 0.0034477208
000190 75 3b a8 bd 6b 4e 6c bd 84 89 26 3d 6d a3 81 3d
       -0.082144655 -0.057691973 0.04065849 0.06329999
0001a0 01 7b d3 bc 9f 3b 85 3d 89 5a 12 3d e1 57 7b 3d
       -0.025815489 0.065055124 0.035730872 0.061363105
0001b0 33 aa b3 bd 7c 04 1d bd da 50 86 3c a1 f7 83 3d
       -0.08772697 -0.038334355 0.016395975 0.06443716
0001c0 4f 8c 4e 3d d0 13 8b bd 95 12 63 bd cf 54 40 bd
       0.050426777 -0.06790888 -0.055437643 -0.04695588
0001d0 df 87 da bc 07 15 fa 3b 27 9e 68 bd b0 fb 73 3d
       -0.026676117 0.007631901 -0.05679145 0.0595662
0001e0 a8 6e 82 3d 78 36 ef 3c f4 45 40 bd 39 59 1f 3c
       0.06368762 0.029200777 -0.046941712 0.009725862
0001f0 ee 4b 28 3d 5e 67 e8 3a 8a 42 a0 3b 3a 78 5b bd
       0.041088037 0.0017731001 0.0048907446 -0.053581454
000200 35 00 5d 3a b3 0c ad bd a1 75 3c bd 17 05 27 bd
       0.0008430512 -0.08449688 -0.046010617 -0.04077634
000210 96 db 25 3d 72 4e a9 bd ca da cd 3c 97 bd ab 3d
       0.040492617 -0.082669154 0.02512874 0.08385771
000220 e4 34 28 bd 1d 53 94 3c 87 2c 33 bd 14 b4 41 3c
       -0.041066065 0.018106038 -0.043743636 0.011822719
000230 95 0e d6 3c ff 6b f6 3c 1b 14 30 bd 1f 91 22 3c
       0.02613 0.030080793 -0.042987924 0.009922295
000240 0e 39 31 bd 0f c2 78 3d e5 56 9d 3a 18 71 9e bc
       -0.043267302 0.060731944 0.0012004046 -0.019341037
000250 9e 75 d0 bc bd ff 48 3d 0b 89 d3 bc b7 69 3a bb
       -0.02544671 0.049072016 -0.025822183 -0.0028444359
000260 3e 4d df 3b 2c 85 50 bd 05 2f 97 3d 49 8b a0 bd
       0.006814628 -0.050908253 0.07382015 -0.078390665
000270 13 a9 4b 3d a9 92 94 bd d2 92 0f bc fb 20 5b bc
       0.04972179 -0.07254536 -0.008763032 -0.013374562
000280 a8 90 2e 3c ba 8b 3c bd 7a 61 91 bd 0a 8e 1a bd
       0.010654606 -0.04603169 -0.0709867 -0.037733115
000290 18 be 8c 3d 87 c8 be bc 1c c3 03 bd b5 24 9d 3d
       0.06872195 -0.023288978 -0.032168493 0.07673017
0002a0 a5 a9 56 3d 32 0a b3 3d ba eb 72 bc 04 23 60 bd
       0.05240788 0.08742179 -0.014826709 -0.054720894
0002b0 05 73 77 3d fe c3 95 bc f8 67 0c 3d 2f 74 a6 3d
       0.060412426 -0.018281933 0.03427884 0.08127629
0002c0 eb 38 52 bc fd 5c 50 bd 9e ea a1 3c 04 da 34 3d
       -0.012830953 -0.05086993 0.019765195 0.04415323
0002d0 d1 db b3 bd 9f 07 c2 3c 1f d5 4d bd a3 d4 75 bd
       -0.08782161 0.023685275 -0.050252076 -0.06001724
0002e0 50 3d 88 3d 98 55 10 bd d0 73 61 3c ba 43 47 38
       0.066523194 -0.03523788 0.013760522 4.7508373e-05
0002f0 57 03 6b bd d9 36 00 3d bc 2e 8e 3d f1 09 18 3c
       -0.057376232 0.031302307 0.069425076 0.009279714
000300 d0 4d aa bd 5f d7 3b bd 83 54 2a 3d 1c 52 81 3a
       -0.08315623 -0.04585969 0.041584503 0.000986639
000310 91 b7 2f bc 32 7f ea 3c 38 23 b2 bc 9c 01 86 bd
       -0.010724918 0.028625105 -0.02174531 -0.06543276
000320 d0 ef 09 bd ed 70 9d bd 7d 66 ca bb e6 cd e7 bc
       -0.03367597 -0.076875545 -0.0061767683 -0.028296422
000330 7e e8 46 3d 7b f1 cd bc f9 0f f0 3c ba 94 63 3d
       0.048561566 -0.02513956 0.029304491 0.05556176
000340 47 38 90 3d 84 bd 72 3d e2 77 34 3d e7 2a bd 3c
       0.07041984 0.059262767 0.04405964 0.023091746
000350 09 37 23 bc 83 7e 7a bd 81 b3 9a bd e3 97 08 bd
       -0.009961852 -0.061155807 -0.07553769 -0.033347975
000360 c0 02 53 3d fe af 9f 3d 80 4d 89 bd 14 a0 8d 3d
       0.051516294 0.0779724 -0.06704235 0.06915298
000370 6c 6d 5b 3b 14 b9 94 bc 08 fa c6 bc 85 5b 87 3d
       0.0033481969 -0.018154658 -0.024289146 0.06609253
000380 eb 1a c0 3c 8c e1 94 3d 17 4e 0d 3d c9 b9 bf 3c
       0.023450335 0.07269582 0.0344983 0.023404019
000390 5d 7c 81 bd f0 ce 0b bd a6 83 24 3d 7c 26 95 3d
       -0.063225485 -0.034132898 0.040164612 0.07282731
0003a0 36 12 82 3d 6e 03 44 bd 2e e3 90 bc ef 5f 22 3c
       0.0635113 -0.047854833 -0.017686453 0.009910568
0003b0 c2 cc af bd a7 4a d0 3c ca 17 06 bc 76 df 65 bc
       -0.08583976 0.025426222 -0.008184383 -0.014030328
0003c0 b6 73 6c bd 58 79 1a bd 21 8a 43 bc 5f 4b 4f bd
       -0.057727538 -0.03771338 -0.011934788 -0.05060899
0003d0 6d e1 2d 3c aa 91 80 3d ed 4b 7f 3d 8a 64 20 bd
       0.010612828 0.06277783 0.062328268 -0.03915838
0003e0 0a 06 8d bd 5e ef 2d 3d 24 25 c0 3c 74 5e a0 bd
       -0.068859175 0.042464606 0.02345521 -0.078305155
0003f0 72 32 2e bd 9e d5 a2 bd 6f 7c 92 3c fa 18 de 3b
       -0.042528577 -0.079509005 0.0178816 0.00677788

bias f4 [64]
000000 99 d4 9f 3d 21 2e 0e bd 5f 9b 82 bc cb 9f a8 bd
       0.07804222 -0.03471196 -0.015943227 -0.08233603
000010 e6 43 04 3d c4 1c 81 3c cb c0 30 3d eb a5 8b 3d
       0.032291315 0.015760787 0.04315261 0.06818756
000020 d2 e2 a2 bc 13 d9 63 3d cf 5d 7a bd 5a d2 90 3c
       -0.019883547 0.05562694 -0.06112462 0.017678428
000030 d6 b4 5c 3d 7a a5 d5 bc 9a cb aa 3d 0e 9e 97 3d
       0.053883396 -0.026079882 0.08339615 0.074031934
000040 da 23 95 bd 3f f1 ae 3d f8 4c 8c 3d 73 2d 9c 3d
       -0.07282229 0.08542108 0.06850618 0.07625856
000050 1b 83 09 3d 12 ad a2 bd 87 5a 03 bd 83 71 cb 3c
       0.033572298 -0.07943167 -0.032068755 0.0248344
000060 8c bf a6 3d 78 71 8b bc 33 56 91 3d 4d 25 9a 3d
       0.081420034 -0.01702188 0.07096519 0.07526646
000070 5f a6 96 3b 02 07 ae bd 89 a2 a3 3d 8a ac 3a 3d
       0.0045974697 -0.084974304 0.079899855 0.045574702
000080 4e e0 aa 3d 09 69 a6 bb 24 22 32 3d 35 8a 90 bd
       0.08343564 -0.005078439 0.04348959 -0.07057611
000090 32 ed 3f bd ec 14 0d bd b8 9e a7 3d c5 f6 78 bd
       -0.046857066 -0.03444378 0.0818457 -0.060782213
0000a0 30 70 7d 3d 8d d1 10 3c ab 36 65 bd 99 1d cf bc
       0.06187457 0.008839023 -0.05596034 -0.025282668
0000b0 8c 83 83 bd f0 72 81 bd e0 cd 3c 3b 22 cc 90 bd
       -0.06421575 -0.06320751 0.0028809234 -0.07070185
0000c0 c7 11 1d 3d 55 c8 ae 3d 95 58 83 3d bc e3 6a bd
       0.038347032 0.08534304 0.0641338 -0.05734609
0000d0 e7 d7 4a 3c f3 ca c5 bc e1 8f 04 bc 59 4d 8c bd
       0.012380577 -0.024144625 -0.008090944 -0.068506904
0000e0 2d 48 1a 3d 1d 72 01 bd 3a 42 a1 bc 0c fa 16 3d
       0.03766649 -0.031602968 -0.0196849 0.036859557
0000f0 8d 21 b3 3d da 4d 80 3d 23 47 90 bd 4e 4e 2b 3c
       0.08746634 0.06264849 -0.07044818 0.010455681

weight f4 [7, 64]
000000 cd 9b 28 bc 46 f2 0b 3c 9b d8 d0 bb 46 57 8f bb
       -0.010291052 0.008541649 -0.0063734776 -0.0043744175
000010 5b 51 87 3c 93 78 10 bc 02 94 aa bb 74 10 1e ba
       0.016518285 -0.00881781 -0.005205632 -0.00060296734
000020 b7 72 e8 3c 58 d2 6b bc 0f 6d ac 3b 28 3c eb bb
       0.028375013 -0.014393412 0.0052620242 -0.007178802
000030 45 bf 3e bb 3e 56 27 bb 7b 3a f0 bb a7 ef 6f 3c
       -0.0029105705 -0.0025533582 -0.00733119 0.01464454
000040 51 9c 5e 3b 94 53 f1 ba 75 83 53 3c 8e e4 35 3c
       0.0033967684 -0.0018411749 0.01290976 0.011101855
000050 fd bf 32 bc 7d 04 24 3c 1a 8d 8a 3c b4 db 8e 3a
       -0.010910031 0.010010836 0.016912986 0.0010899217
000060 c8 8f b0 3c 33 6b a8 ba ab 22 21 3b 9f e4 4b 3c
       0.021552935 -0.0012849331 0.0024587314 0.012444644
000070 ca 3b 80 bc 8e 29 89 bb 2b f3 fb bc e7 ed 88 bc
       -0.01565351 -0.004185862 -0.0307556 -0.016715003
000080 b3 77 9d bc 55 e1 46 ba 75 60 96 3c 57 78 ba 3b
       -0.019222116 -0.00075866777 0.018356541 0.005690615
000090 6b 1d e0 3c 3b 5a 25 bc 1d 6f 07 ba c2 82 ef 3a
       0.027357778 -0.010092313 -0.00051663985 0.0018273222
0000a0 27 86 2d 3c ab 04 36 bb f7 dd b6 bb 8c c4 5b 3c
       0.010591066 -0.0027773778 -0.0055806595 0.01341356
0000b0 c8 c8 8e 3c 1f 45 3a 3c 0f 6a f3 bb 5f 1f 15 bc
       0.017429724 0.011369019 -0.0074284147 -0.009101718
0000c0 3c f2 9a ba 52 7f 7a 3c 41 bb 21 bc c2 1d 5b 3c
       -0.0011821459 0.015289145 -0.009871305 0.013373794
0000d0 9c 3e 03 3d 06 a1 92 3a 10 07 39 3c 48 f7 04 3c
       0.03204213 0.0011186905 0.011293188 0.008115597
0000e0 87 f0 0b 3c 32 8b 31 39 fb a9 4a bc 5f 18 1a bb
       0.008541233 0.0001693189 -0.012369628 -0.0023513061
0000f0 04 c9 ad bb 1d 2a a8 bb 5d 24 e2 3b 6b 12 ba 3c
       -0.005303504 -0.0051319734 0.0069013075 0.02271386
000100 27 00 bf 3a a8 52 42 3c 1b 15 a7 3c c3 33 68 3c
       0.0014572189 0.011860527 0.020395806 0.014172497
000110 ae ec 82 3c fd 79 8c bc 55 ae b5 bc 7a 57 d8 bb
       0.015981998 -0.017148012 -0.022177855 -0.006602225
000120 60 60 f2 ba 8c 7b c9 3b 85 b3 2e 3b 93 27 1f 3c
       -0.0018491857 0.006148761 0.0026657295 0.009714025
000130 5f 0b 0c bd f7 fe 41 bc b0 95 f4 3b ea be 3b bc
       -0.03419053 -0.0118405735 0.007464133 -0.011459092
000140 15 3e f1 bb ec 9b 59 bc f5 55 45 39 df 7e e2 3a
       -0.007362137 -0.013281804 0.00018819406 0.0017280242
000150 eb 68 1e 3c 3b da 53 3c 03 d9 c0 bc e0 f8 30 3c
       0.009668569 0.012930448 -0.02354098 0.010801524
000160 0e 71 25 bc 09 86 bd bb e0 7b 39 3c a6 af 95 3b
       -0.010097755 -0.0057838005 0.011321038 0.004568058
000170 77 52 84 bc a3 5a 2d 3c 87 cf e6 bb 8c bf 19 3b
       -0.016152604 0.0105806915 -0.007043782 0.0023460118
000180 5d 3d 21 bb 96 e4 c3 bb 58 44 9c 3c 75 5b 8a bc
       -0.0024603226 -0.0059781773 0.019075558 -0.016889313
000190 3f 81 f8 bb 93 56 07 3c 24 bd 86 bb 1d 8a 9f 3b
       -0.0075837667 0.008260387 -0.004111903 0.0048687593
0001a0 1d 8c e9 3b b0 5d 86 3b ad 54 e6 3b ee af f3 3a
       0.0071272985 0.004100524 0.007029137 0.001859186
0001b0 9a e6 72 bb 24 a3 9c 3a 4e 40 be 3a 0b a9 ed 3b
       -0.0037063719 0.0011950475 0.0014515014 0.0072528175
0001c0 7b c4 84 3c 34 6e 24 bc a1 b6 97 3b f1 69 49 3b
       0.01620697 -0.01003604 0.0046299254 0.0030733312
0001d0 82 6f 5a bb 7e 65 69 3a 66 42 f1 bc 81 a4 64 bc
       -0.0033330624 0.0008903368 -0.029450607 -0.013955236
0001e0 b7 6d 17 3d eb 35 42 3c b6 28 c1 bb 3e 98 e9 bb
       0.036969867 0.011853675 -0.0058947457 -0.0071287444
0001f0 d0 c5 a9 3b 20 2c 9e bb 61 7a 51 bc 95 74 90 3c
       0.005181052 -0.0048270375 -0.012785525 0.017633716
000200 28 33 99 bc b5 4a df 3b a1 f7 80 bc 5a 58 7f 3c
       -0.018701151 0.0068143257 -0.015743079 0.0155850295
000210 a7 ab 87 bc cc 8e 22 3a 0d 2e 65 3c 05 21 1c bc
       -0.016561342 0.0006201088 0.01398803 -0.009529357
000220 34 4d 97 bc ad 1c 34 3b 34 70 2e ba fa ec 67 3c
       -0.01846943 0.0027482912 -0.0006654293 0.014155621
000230 ad b2 3f 39 d7 59 42 3c e4 3f a1 b9 80 b5 b5 ba
       0.00018281741 0.01186224 -0.00030755915 -0.0013863295
000240 5d 19 a6 3c 79 e1 72 bb 93 7c 02 3b 93 5d 65 3b
       0.020275766 -0.0037060662 0.0019910678 0.0034998402
000250 32 1f d2 3a 49 ca 98 bb 8c 6c 31 3c f9 00 0d bc
       0.0016031025 -0.004662786 0.010829102 -0.008606189
000260 a7 63 2c bc d6 38 fe 39 4c 97 fe ba e7 8c 81 bc
       -0.010521806 0.00048489 -0.0019423752 -0.015814258
000270 a3 01 7d bc b2 eb 64 bc 78 7b 4f bc a3 f0 94 3c
       -0.015442285 -0.01397221 -0.012663715 0.01818115
000280 57 25 c4 3b 73 a2 9a ba 12 b5 0a 3d ab a9 02 3b
       0.0059858966 -0.0011797681 0.03386409 0.0019937556
000290 e9 79 13 3c 4f 32 92 bc 5e bc a8 3a c3 0a 85 bb
       0.009001234 -0.017846255 0.0012873521 -0.004060121
0002a0 8b 13 2b bc 82 5e 69 3c 02 b4 d1 ba a1 43 36 bb
       -0.010441671 0.014243724 -0.0015999081 -0.0027811306
0002b0 3e db bb 3c d2 54 92 bc 53 9e 4b 3c 9e 22 9f 3b
       0.022931691 -0.017862711 0.012427884 0.0048564216
0002c0 8c 11 09 bc 12 f7 0e bc de 3f 4a 3a b6 21 fb bb
       -0.008366 -0.008725898 0.00077152054 -0.0076639308
0002d0 79 0f b1 3b e4 7d 6c bb 7a c7 e0 bc f8 9c 44 3c
       0.005403456 -0.003608578 -0.027438868 0.012000315
0002e0 57 28 e5 3a 48 0a 5b bc 00 05 a1 3c f5 00 f5 3b
       0.0017483336 -0.01336915 0.019655704 0.0074769207
0002f0 93 12 12 bc 75 75 e4 3c db 17 90 bb c7 9f 91 3c
       -0.008915561 0.02788804 -0.004397375 0.017776383
000300 9b 4d 96 3b c0 b9 7f ba 5a 10 17 3c ef 33 1b 3c
       0.004586888 -0.0009755157 0.009220207 0.009472831
000310 57 75 a0 bb 41 a3 1e 3c 50 12 a8 bc 38 18 7a bc
       -0.0048968005 0.009682477 -0.020516545 -0.015264563
000320 eb 1a 16 3c dc 3f 20 3c 58 20 c6 3b 9d 5f f8 3b
       0.009161691 0.00978085 0.006046336 0.0075797574
000330 a5 cf 8b 3c d2 54 6a bc 5e b5 8f 3c 8f d2 3b 3b
       0.017066786 -0.014302449 0.017542537 0.0028659438
000340 a2 d8 97 bc fe 3b ce b9 0a 32 6c 3c 54 ea bf 3b
       -0.018535916 -0.0003933608 0.014416227 0.0058567915
000350 3e a4 12 bd bb d4 f1 3b c2 81 d9 3a b6 d3 95 3b
       -0.035801165 0.007380096 0.0016594457 0.004572357
000360 67 20 80 3c bf ba 97 bb 4b e7 dc bc e2 d7 d5 bc
       0.01564045 -0.004630416 -0.026965758 -0.026103918
000370 af 7d 9b 3c dc de ae bc 62 14 f9 bb df 0d 57 3c
       0.018980829 -0.021346502 -0.007601307 0.013125866
000380 3e 54 ad bb 66 31 a4 bc 76 d5 10 bb 0f da 43 3c
       -0.0052895835 -0.020043086 -0.002209989 0.011953845
000390 c5 9a c8 3c f2 54 87 3c 61 0a 85 ba b9 d4 81 3b
       0.024487862 0.016519997 -0.0010150188 0.003962126
0003a0 b3 cd 95 bb fd 55 21 bc 3c bc 21 bb 86 5e 71 3b
       -0.0045716404 -0.009847161 -0.0024678847 0.0036830022
0003b0 2b cc 82 3b 0b 71 b1 bb 5e d6 2f 3c b3 d8 24 bc
       0.003991624 -0.005415087 0.010732261 -0.010061431
0003c0 03 9d b4 ba a1 f1 39 bc 21 e6 00 3b 07 86 be 3b
       -0.0013779703 -0.011349113 0.0019668418 0.005814317
0003d0 2d 9d 5b bc 8a d8 11 3a 18 92 22 bc 21 30 69 bb
       -0.013404173 0.0005563578 -0.009922527 -0.0035581666
0003e0 bf 2d 83 3c 1a 75 4e 3b 9a f0 9e 3c 77 75 ee 3b
       0.016013024 0.0031502903 0.019401837 0.0072771865
0003f0 05 99 21 3c 21 0b 2d bc ea 09 20 3a 95 d6 e4 bb
       0.009863143 -0.010561735 0.0006104993 -0.006983588

bias f4 [7]
000000 83 9c f7 b7 82 9c f7 b7 84 9c f7 b7 84 9c f7 b7
       -2.9517576e-05 -2.9517574e-05 -2.9517578e-05 -2.9517578e-05
000010 84 9c f7 b7 bd 31 04 38 83 9c f7 b7
       -2.9517578e-05 3.1517575e-05 -2.9517576e-05
