StockEnv_PPO_0/cri.pth (torch, 65168 bytes, 7 tensors)

state_avg f4 [52]
00000000: 0000 0000 0000 0000 0000 0000 0000 0000
00000010: 0000 0000 0000 0000 0000 0000 0000 0000
00000020: 0000 0000 0000 0000 0000 0000 0000 0000
00000030: 0000 0000 0000 0000 0000 0000 0000 0000
00000040: 0000 0000 0000 0000 0000 0000 0000 0000
00000050: 0000 0000 0000 0000 0000 0000 0000 0000
00000060: 0000 0000 0000 0000 0000 0000 0000 0000
00000070: 0000 0000 0000 0000 0000 0000 0000 0000
00000080: 0000 0000 0000 0000 0000 0000 0000 0000
00000090: 0000 0000 0000 0000 0000 0000 0000 0000
000000a0: 0000 0000 0000 0000 0000 0000 0000 0000
000000b0: 0000 0000 0000 0000 0000 0000 0000 0000
000000c0: 0000 0000 0000 0000 0000 0000 0000 0000
0.0 0.0 0.0 0.0 0.0 0.0 0.0 0.0
0.0 0.0 0.0 0.0 0.0 0.0 0.0 0.0
0.0 0.0 0.0 0.0 0.0 0.0 0.0 0.0
0.0 0.0 0.0 0.0 0.0 0.0 0.0 0.0
0.0 0.0 0.0 0.0 0.0 0.0 0.0 0.0
0.0 0.0 0.0 0.0 0.0 0.0 0.0 0.0
0.0 0.0 0.0 0.0

state_std f4 [52]
00000000: 0000 803f 0000 803f 0000 803f 0000 803f
00000010: 0000 803f 0000 803f 0000 803f 0000 803f
00000020: 0000 803f 0000 803f 0000 803f 0000 803f
00000030: 0000 803f 0000 803f 0000 803f 0000 803f
00000040: 0000 803f 0000 803f 0000 803f 0000 803f
00000050: 0000 803f 0000 803f 0000 803f 0000 803f
00000060: 0000 803f 0000 803f 0000 803f 0000 803f
00000070: 0000 803f 0000 803f 0000 803f 0000 803f
00000080: 0000 803f 0000 803f 0000 803f 0000 803f
00000090: 0000 803f 0000 803f 0000 803f 0000 803f
000000a0: 0000 803f 0000 803f 0000 803f 0000 803f
000000b0: 0000 803f 0000 803f 0000 803f 0000 803f
000000c0: 0000 803f 0000 803f 0000 803f 0000 803f
1.0 1.0 1.0 1.0 1.0 1.0 1.0 1.0
1.0 1.0 1.0 1.0 1.0 1.0 1.0 1.0
1.0 1.0 1.0 1.0 1.0 1.0 1.0 1.0
1.0 1.0 1.0 1.0 1.0 1.0 1.0 1.0
1.0 1.0 1.0 1.0 1.0 1.0 1.0 1.0
1.0 1.0 1.0 1.0 1.0 1.0 1.0 1.0
1.0 1.0 1.0 1.0

weight f4 [128, 52]
00000000: 41ba e9bd 22c3 5ebd 2d02 42bd a8db 06be
00000010: 7bfa 70bd 8f57 6fbd 1aad 58bd a626 e23c
00000020: a3cb a7bd 6b36 013e 4424 e23d 34f3 35bd
00000030: 1922 b0bc 349c d13d 7080 52bd d906 bbbd
00000040: b150 27bc be7c e33c 5ff1 ad3d 32d0 c53d
00000050: 0b34 833c a274 033e d2e4 383d 8dc2 2abd
00000060: 72d0 d6bd 76b7 143d 1eda 07be 0d05 6f3d
00000070: fe23 bc3d 2d2b c9bd d27f 723c d7b2 e13c
00000080: 51fd 083d 5a93 da3d 3856 96bd cbf0 e93d
00000090: 353f 57bd 22f2 933c 0673 ad3c 398e 183b
000000a0: 1c28 613d b9a4 e63d 3286 123d de9a ab3d
000000b0: ee6b a2bd d49f a53c 90ed 963d 2ec6 53bc
000000c0: cd39 393d 6fa5 c6bd b10d 763d 9b97 ac3c
000000d0: 60fd a9bd b9f4 363d 4849 73bd 549d 843c
000000e0: 7a00 b9bc ae2f 42bd cac0 3e3d 1708 d63d
000000f0: f121 a1bd 1b73 e8bd eb8a cdbc a740 073e
00000100: 5a59 dfbd 9bcb c83d 8eb7 dd3c c390 b03d
00000110: b2d5 a43d de47 cb3b 7a1e 91bd 8c3d aebb
00000120: 6f5a fe3b de3c 6cbd d059 f53c bbdb ecbd
00000130: ab40 d63d 5b91 e43d 5fcb 6bbc 9866 8e3b
00000140: cc02 ebbd 4dd8 f7bd 476b 7bbc 9971 91bc
00000150: 9c20 d9bd e1fa 173d d985 90bc 5955 8fbd
00000160: 75b7 33bc 2528 23bd b11d c23d efa9 0abe
00000170: 5093 4ebc 2b32 f5bd 9738 eb3b 200c 6bbd
00000180: 3621 9d3d a5bb d5bd fff9 a63d c3e1 b23c
00000190: 5396 cc3d 9ed3 09be faa1 b4bd 3a43 723d
000001a0: bc13 dd3d e45a 6f3d 888e f0bd cf92 a23d
000001b0: 6441 0d3e ec09 e9bd 2a1a 84bd 8160 9dbd
000001c0: fa79 bfbd 0fa6 adbd cf71 51bd 5281 ecbd
000001d0: 04be bc3d 4acb 23bd 810d 7dbd aefb dd3d
000001e0: 914a ba3d 6e72 553d 53dc 323b a3f5 433d
000001f0: 6278 8d3d 0539 333c 1454 26bd d010 02be
00000200: 4dc4 d23d ae60 073e 41d7 63bd a8f7 80bd
00000210: fe75 b0bd e1f2 83bd c339 a9bc 4390 babd
00000220: e511 d0bd b205 d03d aca0 0a3e 4f72 92bd
00000230: 419f 1f3d 99e6 1dbc fdfb 143d 37c2 cf3c
00000240: 4bbd e23d d483 f7bd 37e1 d43b 35df f73c
00000250: 5645 263d fb96 d43d dc32 14bd 26f1 953c
00000260: 07a2 753d edd5 eb3d d4be d6bd 3a35 fe3d
00000270: 9a54 bb3d 4be2 ebbd 5c9e a1bc 5d17 b2bc
00000280: ff17 e6bd 106c 61bd 3cce 873d ac3a 0c3c
00000290: e10f e5bd 052d 033e f4d6 0cbe 4581 8e3d
000002a0: c78d 27bd 51ed 41bd 9080 cbbd 4a96 d7bd
000002b0: f55d a43d 5604 8b3d 9911 033e c2a1 1fbd
000002c0: 21a2 c43d 1ad8 23bb 7bca ce3d 7673 0cbe
000002d0: 3980 d9bd 0360 803d d762 913d 153c 2cbd
000002e0: 6617 27bd 2122 dabd fa1e 83bb 06b1 063e
000002f0: 4215 ba3d 5a40 4b3d 96cc e9bd 50c5 d53c
00000300: 1439 a23d 7273 e13a 864f 6b3d c037 ec3a
00000310: c532 3b3b f76b 0b3e bacf 8ebd e33e 3bbd
00000320: be0c d23c 2ef0 893d ec91 37bd a361 12bd
00000330: 9a7f 283d 173e 943d 66c5 0cbe 4e4b 05be
00000340: 6cd2 b2bd 1b74 9abc 5832 253d 50f0 05be
00000350: fae6 e3bd 22d9 aa3d 2b85 66bd 99e5 e6bd
00000360: b06a c5bd 733d 9d3c 8a60 fb3d e809 d7bd
00000370: 9d90 f2bd ce0b 4abc 7b10 b63d 2b71 5dbd
00000380: 0f76 d5bd efcb 0d3e 3825 fabd 9219 a73d
00000390: 2d9b 11bd 6ba1 8b3d 8709 90bd b56f 02be
000003a0: 63b0 86bd 16c3 b5bd ca4b 4c3c 0397 b73d
000003b0: 3a54 db3d 80ac 5cbd 6bca e73d 819b bbbd
000003c0: 6e35 0cbe 3e4d f9bd 3bc3 adbd 40d1 9c3d
000003d0: 44eb 5a3d 5778 e6bd 6f23 6cbc c39e 29bc
000003e0: f772 bd3d ef0e fa3c 80da 553d 8aae 613d
000003f0: c6f3 0e3d fe1a 9fbd 4129 6d3d ceae 6c3c
-0.11412478 -0.054385312 -0.047365356 -0.1316973 -0.058832627 -0.05843311 -0.052899458 0.02760632
-0.081931375 0.12618415 0.11042073 -0.04442139 -0.021500634 0.102348715 -0.05139202 -0.091321655
-0.010212109 0.027769443 0.084933035 0.09658851 0.016016027 0.1283746 0.045140095 -0.041689444
-0.104889765 0.036307774 -0.13266799 0.058354426 0.091865525 -0.09822688 0.014800983 0.027551098
0.033444706 0.10672636 -0.07340664 0.11422881 -0.052550513 0.018059794 0.021173012 0.002327813
0.054969892 0.11261887 0.03577251 0.08379148 -0.07930742 0.020217814 0.0736953 -0.012925668
0.04522114 -0.09699523 0.06007165 0.021068385 -0.083002806 0.04466698 -0.05939606 0.016188301
-0.022583235 -0.047408752 0.046570577 0.10450762 -0.07867802 -0.113500796 -0.025090655 0.13208257
-0.10905714 0.0980446 0.027065065 0.08621361 0.08048572 0.0062036356 -0.07085891 -0.0053173956
0.0077622454 -0.057675235 0.029950052 -0.11565348 0.10461553 0.11160537 -0.014391749 0.004345726
-0.11475143 -0.12101803 -0.015345401 -0.017754363 -0.10601923 0.03710449 -0.017641949 -0.06998701
-0.0109690325 -0.039833207 0.094783194 -0.13541387 -0.012608364 -0.119724594 0.007178377 -0.05738461
0.0767235 -0.10436181 0.08153152 0.021836167 0.099896096 -0.13459632 -0.08819957 0.059146143
0.1079478 0.05843629 -0.11745936 0.07938158 0.13794476 -0.113788456 -0.06450303 -0.07684422
-0.09349437 -0.08478939 -0.051133927 -0.115481034 0.0921593 -0.039988793 -0.061780456 0.1083902
0.09096254 0.05211108 0.0027291968 0.04784168 0.06907727 0.0109388875 -0.040607527 -0.12701726
0.10291348 0.13220474 -0.055625204 -0.06297237 -0.08616255 -0.0644281 -0.020657426 -0.09109547
-0.10159663 0.10157336 0.13537854 -0.07150709 0.038970236 -0.009637498 0.036373127 0.025361164
0.11071261 -0.12085691 0.0064965743 0.0302578 0.040593468 0.1038036 -0.036181316 0.018303465
0.059968974 0.115154125 -0.10485616 0.12412496 0.09146996 -0.11517771 -0.019728832 -0.021739656
-0.11235046 -0.055034697 0.06631133 0.00855891 -0.11184669 0.12810142 -0.13753873 0.0695825
-0.040906694 -0.047345463 -0.09936631 -0.10526712 0.080257334 0.067879364 0.12799682 -0.038972624
0.09601236 -0.0025000633 0.10097214 -0.1371592 -0.1062016 0.06268313 0.0709893 -0.042049486
-0.0407938 -0.10651041 -0.0040014954 0.13153467 0.09086086 0.049621917 -0.11415975 0.026095062
0.07921043 0.0017200543 0.057448886 0.0018021986 0.0028564197 0.13615404 -0.069732144 -0.04571427
0.025640842 0.06735264 -0.044816896 -0.035737645 0.041137315 0.07238405 -0.13747177 -0.13017008
-0.08731541 -0.018854192 0.040331215 -0.13079953 -0.1112804 0.08342196 -0.056279343 -0.11274261
-0.0963949 0.01919434 0.12274273 -0.10499936 -0.11843989 -0.012331916 0.08889862 -0.054063004
-0.104229085 0.13847326 -0.1221413 0.08159174 -0.035548378 0.068178974 -0.07033067 -0.12737925
-0.06576612 -0.088751 0.012469241 0.0896435 0.10709424 -0.053875446 0.11317905 -0.091605194
-0.13692257 -0.12172936 -0.08484503 0.07657099 0.053447023 -0.11253422 -0.014412745 -0.010352793
0.092504434 0.030524699 0.05221033 0.055098094 0.03490045 -0.0776882 0.05790067 0.014445974

bias f4 [128]
00000000: 8920 6dbd ca55 a53d 8136 14bc 4259 263c
00000010: 530d fbbd 8d75 b63d d879 04be 86cb 2cbd
00000020: f63b a8bd 4493 cfbd 9cab f13d d1d6 ee3d
00000030: c21d 9bbd 8beb 7abc fff6 7b3c f0dd e83d
00000040: a61b ecbd f0f8 6ebd c9c6 00bd da00 813d
00000050: 6f63 033d 2889 943d 4610 ed3c a840 bc3c
00000060: d2ec f9bd 2f51 623b 530f 01be c831 f6bc
00000070: 4030 933d b61e dfbd ad97 0dbe 9f12 79bd
00000080: 9629 a63c f3e2 e83c 20ec 7c3c 8769 6d3d
00000090: cf9f 86bd 4335 f53d fa03 01be 7449 25bd
000000a0: 6707 e43d 5b44 973d 4104 b23d 310d 033d
000000b0: a42e eebc 94a7 dabd 4863 7bbd d4c6 a83d
000000c0: dd85 18bd c90d e9bd 21b9 bcbd 1d22 ffbd
000000d0: 4e47 9fbd c133 2bbd 477c afbd 08c0 4ebc
000000e0: 4e8d e63d 0a58 99bd 5956 013e 2b2f f13d
000000f0: b53c fd3d 916a 42bd 5b17 f0bd 6666 b63b
00000100: b12d 893d 41f5 d3bb 53d0 c4bc a0db 733d
00000110: a7b5 93bd cb35 adbd 8b59 733d 55d6 fc3d
00000120: c2d0 5bbb f3dd 28bd c583 2c3d 9c7e a0bd
00000130: 36f8 2dbc 6630 fdbd 8085 023e e12e a0bc
00000140: 7382 143d eae0 d9bc ed09 fcbd 036f 2cbd
00000150: c773 ef3d 9561 983d 0c9e edbd d6b8 523d
00000160: 2584 a43c d927 77bd 651f bdbd ed3a a6bd
00000170: 34d8 e9bd dea1 d03d 898c e93c 418f a5bd
00000180: f18a a93d 91b5 883c 7eb6 833d e9b0 2f3d
00000190: 6457 20bd 91d8 92bc 3445 e63d 867a 47bc
000001a0: def1 90bd 6c61 033d 2420 fc3d 2d44 a8bd
000001b0: d410 083d 14bf 043e fe4b b03d 12d8 95bd
000001c0: dafb fe3c 5221 973d 2e41 fe3c 0734 323d
000001d0: 12da 013e 255f 5cbd 3254 e33c 62e4 603d
000001e0: 1c74 b53d c7b2 393d 52b7 eb3d 5108 9e3d
000001f0: adf7 e7bc 3b19 a13d e4f3 db3c 2a53 efbd
-0.057892356 0.080730036 -0.009046198 0.010153117 -0.12258401 0.0890914 -0.12937105 -0.042186283
-0.08214562 -0.101355106 0.1180031 0.11662067 -0.07574035 -0.015314947 0.015378713 0.11370456
-0.11528711 -0.058342874 -0.031439576 0.062989905 0.03207725 0.07252723 0.028938424 0.02298005
-0.12203373 0.0034533252 -0.12603502 -0.030053034 0.07186937 -0.108945295 -0.13827391 -0.060808774
0.020283502 0.02842853 0.015437156 0.057961967 -0.0657345 0.119730495 -0.12599173 -0.040353253
0.111342244 0.07386085 0.086922176 0.031995002 -0.029074974 -0.10676494 -0.06137398 0.082410485
-0.037237037 -0.113795824 -0.09214998 -0.124576785 -0.07777272 -0.041797403 -0.08568626 -0.012619026
0.112574205 -0.07487495 0.12630595 0.11776575 0.123650946 -0.04746491 -0.11723205 0.005566406
0.06698168 -0.0064684455 -0.024025118 0.059535623 -0.07212382 -0.08457526 0.059411567 0.12345568
-0.0033541177 -0.041227292 0.042117853 -0.07836649 -0.01061826 -0.12362747 0.12746239 -0.019553604
0.03625722 -0.026596505 -0.12306581 -0.042098057 0.11692005 0.07440487 -0.11602411 0.051445805
0.020082543 -0.060340736 -0.09234504 -0.08116708 -0.114181906 0.10187124 0.028509395 -0.08083964
0.08278454 0.01668814 0.06431292 0.042893324 -0.039145842 -0.017925533 0.11243668 -0.012175208
-0.070773825 0.03207533 0.12310818 -0.082161285 0.033219174 0.12963516 0.08608244 -0.07316603
0.031125952 0.07379402 0.03103694 0.04350665 0.12680843 -0.053801674 0.027750108 0.054905303
0.08860037 0.04533651 0.11509575 0.0771643 -0.028316343 0.078661405 0.026849695 -0.11685784

weight f4 [64, 128]
00000000: 9bb9 a93d 7d2a c9bc 9221 953d dbf6 b33d
00000010: fcb2 f63c ba37 a83d 55b2 a03c 4e65 02bd
00000020: fd35 073d 0561 103d 94a3 2dbc c80f 9d3d
00000030: 0f8d 993d 6b7f 2e3d 695a 633b 46e4 48bc
00000040: 9b78 d4bc 3a4e 123d f1b9 3bbd 915c 92bd
00000050: 26da 833b b9ad 843d feed 16bd 6dfd ae3d
00000060: 0728 583d baae 87bc 6d2e c2bb d5b6 6abb
00000070: c5f6 2e3d 5261 44bd 7089 003d 7380 59bd
00000080: 312f 9c3d 2973 69bc 2411 9e3d c7b1 89bd
00000090: 3974 3b3c 9633 303d e165 65bc 7507 b23d
000000a0: e8d1 543d 20f3 f43c 9e8c 6c3d b7f4 5abd
000000b0: 4531 1bbd ef03 4b3d 2d92 b3bd f1a1 a4bd
000000c0: 2c75 adbc 6904 813d f5d6 17bb 2827 2cbd
000000d0: 2bcb 21bc 5984 8e3d f65e 4cbd dc95 8c3d
000000e0: eb10 653d 870f 1bbd 19d4 91bd 6684 61bc
000000f0: 1e17 84bd 4ad2 7bbd eeaa a43d 4f55 95bd
00000100: 75ab 753d 96f0 a0bb 821a 0dbd 2140 883b
00000110: 733e 623d 5510 823d 6a79 9dbd d75a 5abd
00000120: 3ad0 e33a f1a5 e5bc 8130 8f3d da89 53bb
00000130: 6743 59bc c072 133c edb5 58bd e0b9 6e3d
00000140: c8db d03c da33 453d 7979 ac3c be74 993d
00000150: 23d8 713c 077f 033d 2f39 50bd 907e b0bc
00000160: e038 68bb 5f72 b33d 7583 423c 1abc 483d
00000170: 0c28 5fbd 50a1 76bd 763b 44bc d356 5cbc
00000180: 0c19 97bc d73e d9bc 82c5 2abd 8dcf 313d
00000190: 98f0 df3c da0b 283d 17e7 5e3d 88d3 8e3d
000001a0: 9b92 1abd d8ef 05bc 5896 0fbc 9e83 8dbd
000001b0: c087 543d 7da3 553c b6e3 9cbd ee91 1d3c
000001c0: 67ee 573c 73a5 9fbd 2bb1 173d d52a 26bd
000001d0: 8b2f 51bd e1b5 27ba 87e3 8abc 6f84 203c
000001e0: 56bb afbc 5cd5 a53d a4f9 aa3c 1b64 55bd
000001f0: f2b1 68bd d48c 02bd dc31 6dbd 0b5a 0d3c
00000200: c305 943c 164d 9ebd 61c5 9bbb fabb 0d3d
00000210: 3e29 59bd 9f7e adbd 5029 81bc a947 2bbd
00000220: 83e1 463d 327c 79bd 6282 a1bd 0c0e cebb
00000230: 5d44 9b3d 8ee4 993d 5cc0 9fbc c228 90bd
00000240: c28b 84bd 2db3 b43d af31 363c e6f9 87bd
00000250: b983 053d fd90 b03d 4686 be3c b752 373c
00000260: 4945 df3c dd1a 49bd ca0b 86bd 273b 803b
00000270: 30b2 1bbd 4107 9abc 5bce b13c ede3 5a3d
00000280: e054 003d fcde 423c 50c3 9cbd 8fac fc3b
00000290: 61eb 923d c36b 9fbd 1deb 8c3b a1a9 46bc
000002a0: 1512 ab3d 5265 723c 74ff a13d 7807 8dbd
000002b0: a37f ed3c 0756 0a3d 98aa 32bd dfbc 6abb
000002c0: 258c 06bd a9e3 e0bb 1629 92bd f536 873d
000002d0: 72ab 123d eee7 cbbc 5c51 27bb 4a85 a73c
000002e0: 8e3f 18bc ea03 8d3d 5cba ab3d 0e19 16bd
000002f0: 035a 2abd 2340 83bd db69 88bd 6645 983d
00000300: 9922 5a3d bcee 9bba 7366 b7ba 61ec 9bbc
00000310: b395 a23d bd8a 90bd 0d11 a53b 0aeb 2c3c
00000320: 877b c13c 98d7 05bd 2646 813d 69d7 b13d
00000330: 2f55 84bc 886e aabd 7246 89bd e5cd 2a3d
00000340: 052b 17bd 1e2d 7cbd 1997 423d c3aa b2bd
00000350: ed9b 963d 2c3b 94bc 8e83 13bc f408 8cba
00000360: fb26 063d f9e3 a13d 2258 153d 44eb 893d
00000370: 10f1 6ebd cad8 d93c 2679 b53a d14a 93bd
00000380: ba68 6cbd 2d3e 1c3d 50e0 6bbc 0502 153d
00000390: f53d 0fbd cccc 963d 3d92 dfbc 933f 823d
000003a0: 7f7a 9abd 4091 0abd fcd2 9b3c ced6 9cbd
000003b0: 62d2 73bd dc71 243c 3c77 e1bb c65c 1cbd
000003c0: db16 c5bc c861 5b3d ad0e 763d 5dc1 973d
000003d0: fae1 84bd 5f84 043d 26d4 69bd f50c 853d
000003e0: 6392 26bd 9556 8fbc 125c bc3c 5811 a33c
000003f0: 930d 1b3c e6dd 77bd 4a05 7b3d 0171 adbd
0.082873546 -0.024556393 0.07281794 0.08787318 0.030114643 0.08213754 0.019616285 -0.031834893
0.03301047 0.035248775 -0.010598082 0.07669026 0.07497608 0.042601984 0.003469134 -0.012261456
-0.025936415 0.035719134 -0.045831624 -0.07146562 0.004023808 0.064784475 -0.03684806 0.08544431
0.052772548 -0.016562808 -0.0059259445 -0.0035814543 0.042715807 -0.047944374 0.03138107 -0.053101014
0.076261885 -0.014248648 0.07718113 -0.067233615 0.011441284 0.043017946 -0.014001341 0.086928286
0.051957995 0.029901087 0.05775129 -0.053456035 -0.037888784 0.0495643 -0.08768115 -0.080387
-0.021174036 0.06299669 -0.0023168896 -0.04202953 -0.009875099 0.06958837 -0.04989525 0.06864521
0.055924337 -0.037856605 -0.071205325 -0.013764476 -0.06449722 -0.061479844 0.08040415 -0.07291662
0.059977967 -0.0049114926 -0.034449108 0.0041580354 0.055235337 0.06350771 -0.076891735 -0.053309288
0.0017380782 -0.028033229 0.06991673 -0.003227821 -0.013260699 0.0089995265 -0.052907873 0.058282733
0.025495425 0.048145153 0.021054016 0.0749297 0.014761004 0.032103565 -0.050835785 -0.021544725
-0.003543429 0.08762049 0.011872162 0.049007513 -0.05448155 -0.060212433 -0.011977067 -0.013448435
-0.01844456 -0.026519222 -0.041692264 0.043410826 0.027336404 0.041026928 0.054419603 0.0697394
-0.03773747 -0.008174859 -0.008763872 -0.069098696 0.051887274 0.013039467 -0.0766062 0.009617312
0.013179398 -0.07795229 0.037034195 -0.04056819 -0.05107073 -0.00063976465 -0.016954197 0.0097972
-0.021451633 0.08097336 0.020870991 -0.05209742 -0.056810327 -0.031872585 -0.057908878 0.008627425
0.018069154 -0.07729547 -0.004753754 0.034603097 -0.053017847 -0.08471417 -0.01576677 -0.041816387
0.04855491 -0.060909458 -0.07886197 -0.0062882956 0.07581399 0.075142965 -0.019500904 -0.07039024
-0.06471969 0.088232376 0.011120244 -0.06639461 0.032596324 0.08621404 0.023257386 0.011189154
0.027254717 -0.049097884 -0.06545217 0.0039133015 -0.03801173 -0.018802287 0.021704843 0.053440023
0.031330943 0.011893984 -0.076544404 0.0077110003 0.07173801 -0.07784226 0.0043004886 -0.012125404
0.08353058 0.014794664 0.07910052 -0.0688619 0.028991526 0.03377345 -0.043619722 -0.0035818142
-0.032848496 -0.0068630767 -0.07136743 0.06602279 0.035808034 -0.024890866 -0.0025530672 0.0204493
-0.009292496 0.06885512 0.083851546 -0.036644988 -0.041589748 -0.064087175 -0.06660815 0.07435112
0.05325565 -0.001189671 -0.0013992324 -0.019033613 0.07938709 -0.07057712 0.005037433 0.010554085
0.023618473 -0.03267631 0.06312208 0.08683664 -0.0161539 -0.083218634 -0.067028895 0.041700263
-0.03690626 -0.061566465 0.04750738 -0.087239765 0.07353959 -0.018094622 -0.009003533 -0.0010683821
0.03275202 0.079048105 0.036461003 0.067343265 -0.058335364 0.02659263 0.0013845309 -0.071920045
-0.057717063 0.038145233 -0.014396742 0.03637888 -0.034971196 0.07363281 -0.027291412 0.06359782
-0.075428955 -0.033829927 0.019021504 -0.07658158 -0.05952681 0.010036912 -0.006880669 -0.038174413
-0.02405875 0.05356005 0.06007259 0.07409928 -0.06488414 0.0323528 -0.057087086 0.06496612
-0.04066695 -0.01749734 0.022993121 0.019905731 0.009463686 -0.060514353 0.06128434 -0.084688194

bias f4 [64]
00000000: 4494 24bd c9a5 67bd 0f9c 65bd 3c35 8cbd
00000010: ba48 573d f398 ba3c b465 8ebd 235d 55bd
00000020: a8e5 353d 19ca d9bc 65f4 5dbd 0d0e 503c
00000030: 03f1 d6bc 8158 9c3d 5507 c73c e4c0 1bbd
00000040: 5cfa aebc d692 443d af62 fb3c 09d8 283d
00000050: 19a6 2b3d 742d a33d 91b0 033c 861a ccbc
00000060: 3ad0 b4ba 57bf 893d 12e7 a9bb 2dcb e03c
00000070: fd66 9fbd 6d24 a53d 03f7 87bc b32f 87bd
00000080: e9c3 f13c 3e09 123d 0c17 cdbc fe7e b33b
00000090: 9d48 223d 315e 8b3d fba5 d4bb ebf0 14bb
000000a0: 21b3 b4bd bd8d 96bc 9ec7 3f3d 3bbf 85bd
000000b0: 4bd8 5e3d ebee 743c 52c0 90bd 053e 6f3d
000000c0: 1fc8 64bd e06c 4e3d 7f42 95bc 1837 e9bb
000000d0: 3d8a a8bc dff1 2dbd 9bc7 69bd 7b6c 03bc
000000e0: 767b 0fbd 6eb8 0a3d 31c0 8ebd 9184 06bd
000000f0: 8630 f3bc f0e6 9fbc 9970 9bbd 4b39 1e3d
-0.04018046 -0.05655459 -0.056057032 -0.06846091 0.05255959 0.02277801 -0.06952992 -0.052090775
0.04440847 -0.026585625 -0.05418815 0.0126986625 -0.02623797 0.07634068 0.024295488 -0.03802575
-0.021359615 0.047991596 0.030686704 0.041221652 0.04190645 0.07967654 0.008037702 -0.024914991
-0.0013794967 0.06725948 -0.0051850164 0.027440632 -0.07783315 0.08063588 -0.016597277 -0.06600895
0.029512363 0.035653345 -0.025035404 0.005477785 0.03962003 0.06805075 -0.006489513 -0.0022726606
-0.088232286 -0.018378133 0.04682123 -0.06530615 0.05440549 0.014949541 -0.07067932 0.058408756
-0.055854913 0.0503968 -0.018220184 -0.0071171634 -0.02057373 -0.042466994 -0.057075124 -0.008021469
-0.03502985 0.033867292 -0.06970251 -0.03284127 -0.029686224 -0.0195193 -0.07589836 0.038628858

weight f4 [1, 64]
00000000: 7120 b73c 1d5a 443d 4c46 bd3d e2d2 073d
00000010: 5c21 ad3d 4e0c 683c f242 683c 6e6a e13c
00000020: 2923 23bd fbc5 fd3d 3dae cd3d cc85 63bd
00000030: b9a8 dbbd 1dfe a5bd e6ce bf3d d093 b43d
00000040: a5e2 b43d adf6 41bd 6cee 683d e180 e1bc
00000050: c4a8 1cbc 61bf 7d3c cb7b 41bd b69c 13bb
00000060: 4bfb 22bd 2d3f 13bd 2b4b 8abc d097 ba3c
00000070: f9fe c33b f44d 21bd baa6 02b8 cdc0 983c
00000080: 8e13 983d bfbf 85bc 2b3c 213e 2c69 35bd
00000090: ba7b fd3b eb6e fe3b 5028 16be d747 423c
000000a0: 298c 05bd 5856 13bd 35bf 3c3d ad9d 1bb9
000000b0: af83 20bd b924 873c ff5a f93d f816 92bc
000000c0: 7438 f83c aa4d 23bd 59ae 83bd 561a 7dbd
000000d0: 9f92 873b e01e dabd baa2 253d f530 7cbd
000000e0: bf4e 803d c17e a5bd 6090 bdbc dfbf aa3d
000000f0: dc0c d5bd 1032 983d cf2d 913d 88fb cb3a
0.022354336 0.0479375 0.09241924 0.033160098 0.084536284 0.01416309 0.014176117 0.02751657
-0.039828453 0.123912774 0.10042999 -0.05554752 -0.10725541 -0.08105109 0.093656346 0.088172555
0.088322915 -0.04735439 0.056868 -0.027527275 -0.009561721 0.015487523 -0.0472372 -0.0022523827
-0.039790433 -0.03594892 -0.016881546 0.022777468 0.005981323 -0.039380983 -3.114969e-05 0.018646622
0.07425605 -0.016326783 0.15745609 -0.044289753 0.0077356966 0.0077646873 -0.14663815 0.011857948
-0.03260437 -0.035971016 0.046080787 -0.0001484069 -0.039188083 0.016497003 0.12175559 -0.017833218
0.030300356 -0.039868988 -0.064297386 -0.061792694 0.0041373516 -0.1065042 0.04043839 -0.061570127
0.062650196 -0.08080817 -0.023140132 0.08337378 -0.10402843 0.07431424 0.070888154 0.0015562633
